net6.pt (torch, 468991 bytes, 19 tensors)

weight f4 [32, 2, 15]
000000 c8 77 40 bb e2 fd 87 bd 60 35 cd 3c a0 04 21 be
       -0.002936827 -0.06640221 0.025049865 -0.1572442
000010 df 04 bb 3c e0 3b 28 be 79 42 1d be 5c f2 02 be
       0.022829471 -0.1642909 -0.15357389 -0.12787765
000020 2b 77 05 bc 06 b2 ec 3d a3 7c 5b 3b 51 9f d2 3d
       -0.008146088 0.11557393 0.0033491037 0.102842934
000030 79 b7 8d 3d 57 82 33 3e f1 d8 cf 3c e1 7a 83 be
       0.0691976 0.1753019 0.025372 -0.25679687
000040 d2 10 36 bb 9d f9 67 be cb 7e 2b be d8 35 b4 bd
       -0.0027781022 -0.22653814 -0.16747586 -0.087993324
000050 e5 8e 76 be 95 83 b7 3c da 85 20 3d fc a2 dc bd
       -0.24077947 0.02240161 0.03919015 -0.10773274
000060 be 9d da bd 6d ab d2 bd a5 d9 ad bd 53 90 e3 bd
       -0.10674618 -0.10286603 -0.08488778 -0.11111512
000070 05 3f 1c be f6 84 21 3e c4 c0 05 3e 8e ef 07 be
       -0.15258415 0.15773377 0.13061816 -0.13274977
000080 30 2e 0c bd a1 4f 0f 3c 06 11 c3 3c ee a2 91 3d
       -0.034223735 0.008747012 0.023811828 0.071111545
000090 83 ec 59 3e 3d 0f 17 3e dd 8a 0b be 3f 5f 9b bc
       0.21281628 0.14751907 -0.13627191 -0.018966315
0000a0 a5 6c 81 bc e5 c7 1f be 18 09 54 bd cf 1c 8e bd
       -0.015798876 -0.15603597 -0.051766485 -0.069390886
0000b0 b1 cd cd bd 82 59 07 be 10 8b 9f bd a2 11 bc bd
       -0.10048998 -0.13217738 -0.07790196 -0.09183051
0000c0 29 63 6b be bb 14 13 bd 14 b1 e6 b9 2d 7f 1a be
       -0.22987045 -0.035908442 -0.00044000952 -0.15087576
0000d0 46 e7 94 be bd 73 f1 bd 44 a9 8e be e7 2a 1f be
       -0.29082698 -0.117896535 -0.27863514 -0.1554371
0000e0 26 dd af be 1b 13 90 be a8 3e c2 be 91 d9 b7 be
       -0.3434841 -0.28139576 -0.37938428 -0.35908177
0000f0 4e ca 49 bd a4 4c 05 3e 54 b7 fd bd 81 ca 35 bc
       -0.0492652 0.13017517 -0.12388483 -0.011095644
000100 e8 e8 13 bd 43 53 ed 3d 50 28 38 3e 82 0a 17 3e
       -0.03611079 0.115881465 0.17984128 0.14750102
000110 ec 30 d6 bd 07 70 04 be b4 84 e0 3c 63 dd 08 bd
       -0.1045855 -0.1293336 0.027407028 -0.033414256
000120 d2 35 e0 bd 3c 4e 90 bd 3a 79 0b be f4 cb a6 bc
       -0.109477654 -0.07046172 -0.13620463 -0.020360924
000130 38 15 86 be ee 66 25 be fe 7b d9 bd 61 25 0c 3e
       -0.26188064 -0.16152546 -0.10619353 0.13686134
000140 89 f2 6d 3e 35 93 72 3e ce 02 0a 3e 10 61 88 3e
       0.23237051 0.23688968 0.13477632 0.26636553
000150 98 8d d8 3e 74 fa 3b 3e 93 f8 c9 3e 96 4f 8c 3e
       0.42295527 0.18357259 0.3944746 0.2740447
000160 e5 33 8a 3e 07 c5 aa 3e 3e 71 b3 bd 4f 63 da bd
       0.26992717 0.33353445 -0.087618336 -0.10663473
000170 d8 93 de 3d d8 77 88 bd 6d d4 1b bd 36 dc bb bd
       0.10868043 -0.066634834 -0.038044382 -0.09172861
000180 04 67 77 3d 80 6d 54 be 71 c0 08 be a0 35 37 bd
       0.060400978 -0.20744896 -0.1335466 -0.044728875
000190 6b 92 f3 3c 90 8f 06 be 63 97 ba bd 56 bd 2f 3d
       0.029732903 -0.13140702 -0.09110906 0.042905174
0001a0 a6 04 26 3e 83 b1 09 3f 7e bd e4 3e 72 69 e6 3e
       0.1621271 0.53786486 0.4467582 0.45002323
0001b0 ad 08 19 3e 35 1b 97 3e eb f8 83 3e d8 50 ac 3e
       0.14944716 0.29512945 0.25775847 0.3365543
0001c0 3c 67 9f 3e 2b a6 53 3c b0 5b 9b 3e 01 35 90 3c
       0.3113345 0.0129180355 0.3034339 0.0176034
0001d0 7d 61 5d 3e f8 6a ca 3d b5 c8 2f 3e 25 b0 84 3e
       0.2161922 0.09883684 0.17166407 0.25915638
0001e0 0a 9b 1f be 79 be 8c bd 79 8d db bc 19 45 0a bd
       -0.15586486 -0.06872267 -0.026800858 -0.033757303
0001f0 3f 70 e9 bd 23 6c 11 be 8a 49 18 3e 89 46 2e 3e
       -0.11398362 -0.14201407 0.14871803 0.17019095
000200 52 2b 44 3c 00 a1 24 3d 14 40 eb 3d d7 7f b7 3d
       0.011973219 0.040192604 0.11486831 0.089599304
000210 14 29 64 bc 65 3b ab bd ba 11 da bc 8b 1f 96 be
       -0.013925809 -0.08360938 -0.02661978 -0.2932094
000220 e6 a8 3c be ab fa d7 be 58 5a 93 be bd 23 02 be
       -0.18423805 -0.42183432 -0.28779864 -0.12708946
000230 37 99 bd be 3f 06 a5 be 03 a6 59 be 86 ff 69 bc
       -0.37030956 -0.32231328 -0.21254735 -0.014282113
000240 b3 0d 71 be d3 d0 82 be 3a 14 5d be 20 c0 24 bd
       -0.23540382 -0.25549945 -0.21589747 -0.040222287
000250 11 ff 82 bc dd 1f 50 be d3 11 e8 bd f0 c6 5b bd
       -0.015990766 -0.20324655 -0.11331525 -0.05365652
000260 e9 9d 41 be 6b 2e 29 3d a6 86 f3 3d 01 30 57 bd
       -0.18907894 0.041304033 0.118909165 -0.052536014
000270 11 65 9c bd 3e bd 36 3d a4 79 3a be a7 0f 8b 3d
       -0.076364644 0.04461407 -0.18210465 0.06790095
000280 25 76 8b bd 4b f8 c1 3d 34 39 e9 bd 09 f6 2d bd
       -0.06809644 0.09471186 -0.11387864 -0.042470966
000290 b2 19 d3 39 ef 1b 81 be 8b 59 55 3d 2a 33 8b be
       0.000402642 -0.25216624 0.052087348 -0.27187473
0002a0 7c 3d ee bd da 62 2e 3d 39 8f 29 be cf 55 bd bc
       -0.11632821 0.04257474 -0.16558541 -0.023112206
0002b0 c9 8f 2e 3d 76 3e 0c 3e ee b9 b8 bc 21 54 a6 3d
       0.042617593 0.13695702 -0.022549596 0.08121515
0002c0 84 bd c5 3d f3 64 17 3e ef 3f 2b be c6 62 1a 3e
       0.09655288 0.14784603 -0.16723607 0.15076742
0002d0 9a 12 c0 3c 82 9b 7d 3d 63 18 f1 bc 14 2a 08 bd
       0.02344637 0.061915882 -0.029430574 -0.033243254
0002e0 dd 7d 27 be 22 06 55 3c ba 00 75 3c 8d de d6 bd
       -0.16356607 0.01300195 0.0149537865 -0.10491667
0002f0 ec ca d0 bd 91 1e c8 bb 33 28 51 be b3 19 07 be
       -0.10194954 -0.0061071594 -0.20425491 -0.13193397
000300 bc 4f 91 bd 09 87 52 be 3c 31 92 3d 4c 5d be bc
       -0.07095286 -0.20559324 0.07138297 -0.023237847
000310 2f f3 19 3e c9 9b f8 3c 65 3f 6c bd ed 30 33 3e
       0.15034173 0.030347722 -0.057677645 0.17499132
000320 9f 4a 18 be e7 da 23 3e ab 29 34 bd a2 0d 04 3e
       -0.14872216 0.16001473 -0.04398505 0.12895826
000330 34 18 2e 3e 01 cd 99 3d 7f 48 09 be 6b 40 ba bd
       0.1700142 0.075098045 -0.13406561 -0.09094318
000340 ab fe 21 3e f4 91 09 be 2e 76 1b bd 3d 14 45 3d
       0.15819804 -0.13434583 -0.0379545 0.048115004
000350 cb 1c f1 3d ed cd 05 be d4 cf 46 38 82 2e c9 3d
       0.1177307 -0.13066836 4.7400434e-05 0.09823324
000360 bc da ae 3d ea 92 07 3d 43 5e 62 be 79 3e 33 be
       0.08537814 0.033099093 -0.2210627 -0.175043
000370 ad 5b 21 be f2 a1 81 bd db b3 6d 3b f0 c7 0b 3d
       -0.15757628 -0.06329717 0.0036270532 0.034126222
000380 1b bc 0d 3e be 36 10 3d 05 b7 00 be 43 06 19 be
       0.13841288 0.035208456 -0.12569816 -0.14943795
000390 9d a6 d7 bd 1d 42 11 bd 4a 60 de bd 08 78 0e be
       -0.10529826 -0.03546344 -0.108582094 -0.13912976
0003a0 6d cc 51 be 4c 51 8e 3d 77 ea 9c 3b 2f b9 d4 3c
       -0.20488138 0.069491 0.0047886926 0.025967209
0003b0 db 43 81 be 9c 56 75 be 13 6c 64 bd 09 c0 5d be
       -0.25247082 -0.2395882 -0.05576713 -0.21655287
0003c0 2b 8a 77 bd cb 55 01 be 5c a9 35 3d fb 2c 9d 3c
       -0.0604345 -0.12630384 0.044350967 0.019186487
0003d0 27 89 02 be ea ee f3 3d 2e 4b f3 3d 7a 9d 67 3d
       -0.12747632 0.119108036 0.11879574 0.056546666
0003e0 8e 7c e6 3c 3f 0c 1f 3e a6 1e f2 3d 7f 14 25 3e
       0.028135564 0.15532015 0.11822252 0.161211
0003f0 00 63 30 3e 85 ae 18 3e e3 02 8d 3d 83 ea 0b be
       0.17225266 0.14910324 0.06885316 -0.13663678

bias f4 [32]
000000 25 6c 3e 3e 53 63 a2 3d d3 7a 07 3e 82 d4 79 3d
       0.18595941 0.07929101 0.13230447 0.06099368
000010 3c d2 b0 3d d7 f5 f1 3d 81 d2 5d bd 51 50 0d bd
       0.08633849 0.11814468 -0.05415583 -0.034500424
000020 54 24 03 be a0 d9 00 3e b2 3b db bd ed e8 79 3d
       -0.12806827 0.12583017 -0.10704745 0.06101315
000030 50 56 47 3e 9a 4c 45 bc 07 9d 2c be f1 e6 24 3e
       0.1946652 -0.012042189 -0.16856776 0.16103722
000040 44 1e 04 3b c2 87 98 3c e1 74 38 be 25 fa b4 bd
       0.0020159641 0.018619422 -0.18013336 -0.08836774
000050 8b 0a 10 3e be a7 41 bd 6b 50 0e 3e 51 16 fb 3d
       0.14066522 -0.047279112 0.13897865 0.12260116
000060 26 05 0d 3e 96 b7 a5 bd fd 50 d6 bd 29 9d d7 3d
       0.13771495 -0.08091657 -0.10464666 0.10528023
000070 eb 79 d5 3d 41 ec 27 bd e0 55 34 be 17 0c a2 3d
       0.10423645 -0.040996794 -0.17610884 0.07912462

weight f4 [64, 32, 15]
000000 e7 fd fd 3c 0d b4 ac 3c a0 e5 23 bd 62 78 e8 bc
       0.03100486 0.021081949 -0.04001391 -0.028377715
000010 2b f2 0e bc 2a e9 20 bd 1c 3b 99 bc d5 48 19 bd
       -0.0087247295 -0.039284863 -0.018704943 -0.037422974
000020 14 bb 3d be 1a 5e a5 bd 70 30 83 bd fc 50 af bc
       -0.18528396 -0.08074589 -0.06405723 -0.021400921
000030 c8 81 35 bc f1 fe 4f 3c 21 ca e4 bb e1 95 89 3d
       -0.011078306 0.01269506 -0.0069821035 0.0671804
000040 ad ba cf bb 20 b6 1f 39 38 be 4a 3c ba 00 92 bc
       -0.006339392 0.00015231268 0.012374453 -0.017822612
000050 93 4a 84 bc d0 7e 79 3d 36 11 ce 3c 99 8b a5 bc
       -0.016148841 0.060911953 0.025154691 -0.020208167
000060 23 0f e3 bc 22 4a 4f 3d 4d 83 57 bd e9 f6 c2 b9
       -0.027717179 0.050607808 -0.052615453 -0.00037186526
000070 5c ca 29 3c 95 04 1c bd 1d 51 e7 3c cc 9f 60 3d
       0.010363188 -0.038090307 0.02823692 0.054839894
000080 41 70 41 3c c3 26 7c 3d 62 8e e0 3c 02 f0 06 3c
       0.011806549 0.061560404 0.027411643 0.008235933
000090 dd c1 ac 3d a4 02 b8 3d b6 b8 33 3e 1c 00 97 bc
       0.08435414 0.08984879 0.1755093 -0.01843267
0000a0 27 ae 25 3d 81 be c0 bc ca 82 53 3d ee 65 3f bc
       0.040449288 -0.02352834 0.051638402 -0.011682017
0000b0 f6 66 51 3d 93 64 8e 3d 2e 11 e6 3d 11 e7 4d 3d
       0.05112358 0.06952777 0.112337455 0.05026919
0000c0 10 df 98 3d 22 11 92 3d d2 28 17 3d cc bf e3 3c
       0.07464421 0.07132174 0.036904164 0.027801417
0000d0 d8 3c dc 3c 0a 99 91 3d 21 b8 e6 3c 4e 4e 6b bd
       0.026884481 0.07109268 0.028163971 -0.057447724
0000e0 7a 51 79 bd 4b b5 35 3d 02 dc 0a 3e cf c0 4b bd
       -0.060868718 0.044362348 0.13560489 -0.049744423
0000f0 4b ea a4 3d fd 1c 54 3d 6b 24 c2 3c 46 1f 85 bd
       0.080525 0.051785458 0.023699006 -0.065001056
000100 14 32 ac bd a8 5f db bd dc 7e c0 bd fc dd ae bd
       -0.08407989 -0.10711604 -0.093991965 -0.08538434
000110 8f 6a 10 be 47 db a7 bd 70 fc b4 bd 75 32 b8 bd
       -0.14103149 -0.08196121 -0.08837211 -0.08993999
000120 3d 50 2e be 5c d0 a3 be 2f e2 6d bd b1 3a b3 3c
       -0.17022796 -0.31994903 -0.058077034 0.021878572
000130 9a 03 06 3d 35 81 47 bb ba de b8 3c 13 1a 5d 3d
       0.03271828 -0.0030442004 0.022567142 0.053979944
000140 a5 9d 18 3c 33 87 06 3d 12 4f 2f 3d b0 22 f2 3d
       0.009314929 0.03284378 0.042800017 0.11823022
000150 92 66 03 3e 16 fd d8 3d 06 fd 62 3d 63 dc d0 3d
       0.12832096 0.10595147 0.055417083 0.101982854
000160 12 74 70 3d e6 c2 60 3d f8 d4 1e 3d 1e 93 67 bc
       0.058704443 0.05487337 0.03877732 -0.014134197
000170 c6 3b 74 3d f9 af 82 3d 9f c1 3a 3c c3 a1 9c 3b
       0.059627317 0.0638122 0.011398702 0.0047800257
000180 23 27 b9 3b d8 21 31 3d ed f2 d8 3d 7f db 62 3d
       0.0056504174 0.043245167 0.105932094 0.05538511
000190 9d 1b 98 3d 4d 87 ec 3d a9 2e 6e 3d 51 3a 42 3d
       0.07427142 0.11549244 0.058149967 0.047418896
0001a0 92 41 b4 bb c7 09 56 3d de c3 c1 3b 22 df 19 bd
       -0.0055009807 0.05225542 0.0059132418 -0.03756631
0001b0 17 be 02 bc 5a 48 99 3c 8a 47 e1 3c d8 78 33 bd
       -0.007979891 0.018711258 0.027499933 -0.043816417
0001c0 6a aa 73 3d c1 73 31 3d 00 82 9c bd 9e 55 90 3d
       0.05948869 0.043323282 -0.07641983 0.0704758
0001d0 0c c4 79 bc 5d 12 84 bd 85 00 d1 bc 18 6f bd bd
       -0.015244495 -0.06448815 -0.025512943 -0.09249705
0001e0 64 ec 82 bd b6 9d 83 bc 6b b0 91 bc db c9 bc bd
       -0.06392744 -0.016066413 -0.017784318 -0.092181884
0001f0 ac e9 af bd f6 e8 7b bd 0a 8e cd bd 8c 10 21 be
       -0.08589491 -0.061501466 -0.100368574 -0.15728968
000200 3e 85 ba bd 99 e4 b7 bd cd 5f 39 be 88 87 35 be
       -0.09107445 -0.089791484 -0.18102951 -0.17727482
000210 8b 51 b9 bd e0 d1 cf bd 82 3e 8f bd 79 5d de 3b
       -0.09048756 -0.10147452 -0.06994344 0.006786045
000220 2c bc 06 bd af 89 f1 bc 5a e0 08 3c 86 00 2f bc
       -0.0328943 -0.029484598 0.008354271 -0.010681277
000230 68 e4 1e bd 80 50 02 bd 8c a7 81 bc 0b 18 49 3d
       -0.038792044 -0.031815052 -0.015826963 0.049095195
000240 b1 74 8b 3d f7 c9 f3 3d b1 cb f0 3d b1 4c c7 3d
       0.068093665 0.11903756 0.11757601 0.097314246
000250 a7 07 33 3c 18 c7 8c 3c b6 15 ae bc 21 17 35 3d
       0.010927117 0.017184779 -0.021250587 0.04421151
000260 0d cf ec bc 3b 7f d4 bb 54 d3 dc bc 5b 3b d6 bc
       -0.028907323 -0.0064848936 -0.026956238 -0.02615135
000270 b0 11 9b bc f5 b1 92 3d 84 40 a3 3d a3 67 48 3d
       -0.018929332 0.07162849 0.0797129 0.04892696
000280 c6 31 43 3d e3 b7 8b 3d 96 8a 02 bc 54 c1 9e bb
       0.04765489 0.06822183 -0.007967612 -0.004844824
000290 4c 3d 40 bc 52 20 12 3d 8f 2c 45 bb 35 21 59 bc
       -0.011733364 0.035675354 -0.0030086373 -0.013252546
0002a0 e7 a2 11 bd 48 50 4c ba 14 7f 8d bd dc 4f 10 bb
       -0.035555746 -0.0007793945 -0.06909004 -0.0022020256
0002b0 db 5c 9d 3a 9c d2 d8 bd 2d b5 8d bc 5d c7 d7 bd
       0.0012005823 -0.105870456 -0.017298305 -0.105360724
0002c0 07 8e 7c bd c2 cb 91 bd 1d c0 75 bd bb 0a 49 bc
       -0.061658885 -0.07118942 -0.059997667 -0.012270625
0002d0 c0 f3 e2 bc 00 81 48 bc 7d be aa 3c d4 76 6d bb
       -0.02770412 -0.012237787 0.020842785 -0.0036234157
0002e0 dc 95 45 bd 9e 94 71 3c 6f 85 b5 bc f2 88 ee 3b
       -0.04823862 0.014744906 -0.022158353 0.0072795087
0002f0 e8 56 4b bd cf 75 12 bd 43 23 f4 bd 58 98 c5 bd
       -0.049643427 -0.035756882 -0.11920788 -0.09648198
000300 db 7d 11 bd a4 ec bd bd c7 41 71 bd 05 a8 33 3e
       -0.035520416 -0.09273651 -0.05890062 0.17544563
000310 09 7c 58 3e a4 80 29 3e f5 84 81 3e 95 8e 61 3e
       0.21141066 0.16552979 0.2529675 0.22027047
000320 41 bb fe 3d 3a 4d 28 3e a3 5d d3 3d aa fb db 3c
       0.124380596 0.1643571 0.10320594 0.026853401
000330 bd 9d d4 3c 7c 27 c1 3c 2d 84 29 bd ab 1d db bc
       0.025954122 0.023578398 -0.04138582 -0.026747545
000340 87 40 71 3a 4d 06 9b bc 96 83 43 3d bd a8 ab bb
       0.0009203036 -0.018923903 0.047732912 -0.005238621
000350 b4 ea 30 3d ca 33 60 bc 71 3b 3b 3d 24 16 4b 3b
       0.04319258 -0.0136842225 0.045710985 0.0030988539
000360 2d 20 58 3c e4 09 79 3d 90 b9 4b 3c f7 a6 2a 3e
       0.013191265 0.060800448 0.012434378 0.16665255
000370 93 b0 bf 3d 24 4d 8d 3d b5 5c 26 3c 3b 26 dc 3b
       0.09359851 0.06899479 0.010153939 0.0067184246
000380 de 2e c8 bc 4f c2 4b bd 46 81 fc bc cb da 54 bd
       -0.02443641 -0.049745854 -0.030823361 -0.05196647
000390 fc 73 d7 bc 84 fb 03 bc 25 16 0a 3c 12 e8 1b bd
       -0.026300423 -0.0080555715 0.008428131 -0.038063116
0003a0 0e 64 64 bd 1b e8 72 bd 05 f6 93 bd 23 d7 d6 bd
       -0.055759482 -0.059303384 -0.07224659 -0.10490253
0003b0 42 e3 cc bd cf 0c b8 bc ad c7 61 bc e9 b9 b1 3b
       -0.100042835 -0.022467045 -0.013780517 0.0054237735
0003c0 d5 b6 e5 3c 38 39 0e 3c 28 30 6c 3d 08 30 e0 3d
       0.028041283 0.008680634 0.057663113 0.10946661
0003d0 b4 cb 9e 3d 68 bc 07 3e 0f 37 06 3d 51 9b 71 3d
       0.07753697 0.13255465 0.03276735 0.058986012
0003e0 20 2c a5 3c 7f e8 fd 3c ca 6c 58 bc 0d 15 2b bb
       0.020162642 0.030994652 -0.013209531 -0.0026105077
0003f0 86 66 f8 bb 57 1a ce 3b 55 29 a7 bc c3 fa 1c 3e
       -0.007580581 0.006289761 -0.02040545 0.15330033

bias f4 [64]
000000 21 f6 02 bc 4a 22 fb 3c 1c 94 9c 3d 3e 11 6d bb
       -0.007993252 0.030655999 0.07645437 -0.0036173607
000010 c8 ee ad bd ea b7 fc b9 12 3e a3 bd 8d 8b 16 3c
       -0.084928095 -0.00048202212 -0.07970823 0.009188545
000020 bb 2e e1 bc db 66 0d 3d a6 38 8e 3d dd 90 d2 bc
       -0.027488103 0.03452192 0.069443986 -0.025703842
000030 c8 29 8b 3d f8 9e 6f 3d 24 62 68 3d 0c 15 e0 3a
       0.067950785 0.058501214 0.05673422 0.0017096116
000040 3e 50 3a bc 38 31 bf bc 02 91 00 bd c0 92 37 3d
       -0.01137167 -0.023338899 -0.03138829 0.044817686
000050 eb d1 26 bd 25 ad 56 bc 33 29 6b 3c 63 74 48 3d
       -0.040727537 -0.013102804 0.014353084 0.04893912
000060 c6 8f 84 bd b5 cb 84 bc 79 e5 73 3d ef 7d 39 bd
       -0.06472735 -0.016210416 0.059545014 -0.045286115
000070 cf 49 6e 3a 29 17 47 bc 63 40 c1 bd c8 7a 31 3d
       0.0009089978 -0.012151518 -0.09436109 0.043329984
000080 2b c5 10 3d d5 14 65 bd a0 30 31 bd 47 32 06 bc
       0.035344284 -0.05592807 -0.043259263 -0.008190698
000090 e2 49 83 3d 4b a6 1a 3c c2 81 8b 3b ef 97 aa bd
       0.064105764 0.009439061 0.0042574117 -0.0832976
0000a0 2b 94 a7 3c 47 0c 7a bd 63 bf 04 bd 26 50 55 3d
       0.020456394 -0.061046865 -0.032409083 0.05207839
0000b0 62 bc 44 3d d3 f6 03 3d 79 34 8f bd 46 12 2d 3c
       0.04803122 0.03221781 -0.0699243 0.010563439
0000c0 96 f6 c6 bc 15 03 8f 3d 0e f3 b3 bc e5 3d 63 3d
       -0.024287503 0.0698301 -0.021966483 0.05547895
0000d0 94 fb 35 3d b9 21 83 bc ac f4 ed 3b 1a 6f 8e 3c
       0.044429377 -0.016007291 0.007261833 0.017386962
0000e0 72 ad d1 bc 05 c8 d0 ba 93 45 1d 3d d1 85 fa 3c
       -0.0255954 -0.0015928751 0.03839643 0.030581387
0000f0 83 4d 77 3d 5b d7 e2 3c 30 a6 bd bc 71 6a 2f 3d
       0.060376655 0.02769058 -0.023150533 0.04282612

weight f4 [32, 64, 15]
000000 51 0d de bb c0 47 8b 3d d7 f9 21 3e 91 8c db 3d
       -0.00677649 0.068007946 0.15817963 0.1072017
000010 d8 45 f6 3d 8b 36 f1 3d 8f fb b0 3d 9f 9b c6 3c
       0.120250404 0.11777981 0.08641731 0.024244128
000020 de 9e 64 bd d7 dc bd bd 1b c8 1c be 2d 52 04 be
       -0.05581557 -0.092706375 -0.15310709 -0.12921973
000030 5f 35 0a be 14 43 e2 bb da 04 20 bd 1e a9 1a 3d
       -0.13496922 -0.006904969 -0.039067127 0.03775894
000040 b1 72 61 3d 4a aa 38 3d 2f 74 c9 3a f8 44 07 3d
       0.05504102 0.045084275 0.0015369708 0.033024758
000050 e2 d6 e7 bb 17 9c 0b 3d 47 76 6e 3d 80 3f 82 3d
       -0.0070751766 0.034084406 0.058218267 0.06359768
000060 f6 21 c7 bb 2a 93 6c 3d 28 65 ae 3d 8d bb 64 3d
       -0.0060770465 0.057757534 0.08515388 0.055842925
000070 7e e3 0f bb c6 aa ca bb 3b f1 54 bc 28 36 14 3d
       -0.0021955664 -0.0061849086 -0.012996967 0.03618446
000080 9e fe fc 3c 3a 20 19 3d 3c 25 fa 3c 5a a5 40 3c
       0.03088313 0.03738425 0.030535333 0.011758173
000090 6d ba 7c 3c 7c bc 23 3c 59 a2 20 bc 96 d9 dd 3c
       0.015425307 0.009993669 -0.009804332 0.027081292
0000a0 00 e0 46 3b 49 2b 74 3d e7 86 8f 3d fb 05 50 3d
       0.0030345917 0.059611592 0.070081525 0.050786953
0000b0 0e 0d 01 3c 47 46 17 3d e2 db fa 3c 9b 53 84 3c
       0.007876648 0.036932256 0.030622426 0.016153147
0000c0 5a 88 04 3d f5 39 53 3d 01 71 25 3d d7 e8 5d 3d
       0.032356597 0.051568944 0.040390972 0.05417713
0000d0 a5 53 c6 3c cf de 11 3d cc 68 05 3d 73 4d a6 3d
       0.024209807 0.035612877 0.032570645 0.08120241
0000e0 36 56 68 3c 33 00 20 3c 31 73 f2 bc 32 98 6d bc
       0.014180711 0.0097656725 -0.029595943 -0.014501618
0000f0 62 79 67 3c 70 57 c1 bc 87 21 ac bc 5a cd da bc
       0.014128061 -0.023601264 -0.02101208 -0.026709247
000100 2e 99 12 3c d0 57 11 bd 8e 4e 0e bd d9 01 85 bd
       0.008947654 -0.035484135 -0.034742884 -0.06494493
000110 63 aa 91 bc 5f f5 88 bc 41 66 e2 bc 1a 39 ea bd
       -0.017781442 -0.016718565 -0.02763665 -0.114366725
000120 c0 35 05 bb 17 b1 03 3d d5 8b 02 3d 88 68 aa 39
       -0.0020326227 0.032151308 0.031871635 0.0003250281
000130 17 c4 b2 bc 5c a7 11 3b 53 aa 5a bc 3d 06 80 3d
       -0.021822019 0.0022224998 -0.0133462725 0.0625119
000140 0d 55 4a 3d 65 9a 94 3c 5c fd 46 bd da 69 41 bd
       0.049397517 0.018140027 -0.048581466 -0.04722009
000150 d5 88 d0 bc 63 48 a7 3c e4 5c a7 bc 3c 9a 0d bc
       -0.025455872 0.020420259 -0.020430036 -0.008642729
000160 34 8c 17 3c 95 01 21 3d a7 f2 9f bc 05 a2 02 bd
       0.009249736 0.03930815 -0.019524885 -0.031892795
000170 5a 9e 30 bd 3e 09 fe bc 25 05 d4 3b 89 61 74 bd
       -0.043119766 -0.031010266 0.00647034 -0.05966333
000180 4c 34 1a bd 62 d0 fe bb 8b aa 03 bd 1c f5 f6 bc
       -0.03764753 -0.007776306 -0.032145064 -0.030146174
000190 26 02 22 bd 13 b9 5b bd 24 26 2e bc 1b 12 14 3d
       -0.03955283 -0.053643297 -0.010629211 0.03615008
0001a0 e9 70 31 3d ad d4 18 3d 8b 7d 50 3d 44 94 70 bc
       0.04332057 0.0373122 0.050900977 -0.014683787
0001b0 09 16 d8 bb a1 bd c9 3a d8 55 95 bc a0 8c 22 3d
       -0.0065944237 0.0015391597 -0.01822941 0.03968489
0001c0 e8 de 39 3c 4e 2b 4a 3d 8f 62 b7 3c b3 5c 63 3d
       0.011344649 0.049357705 0.022385864 0.055508327
0001d0 0a c0 33 3e 9e e4 d4 3c 50 df 99 3c 48 86 6e bc
       0.17553726 0.02598792 0.018783242 -0.014558382
0001e0 52 4f 38 3e d4 f7 7e 3e f4 73 8c 3e 62 6c 53 3e
       0.17999008 0.24899226 0.27432215 0.20646814
0001f0 a7 4c a0 3d 93 b7 92 bc e5 50 f1 bc 8f 1b 3d bd
       0.0782712 -0.0179098 -0.029457519 -0.04616886
000200 6f db 2e bc fe db 35 3d 5c 09 54 3d 6b 56 88 3d
       -0.010672434 0.044399254 0.05176674 0.06657108
000210 3b 96 02 3e 45 af a8 3d 6f a1 16 3d 53 f7 a7 38
       0.12752621 0.08236555 0.03677505 8.009248e-05
000220 2a 06 13 3d f5 d5 04 3d 1e 6a 15 bc 26 2f 6c bb
       0.03589455 0.032430608 -0.009119539 -0.0036038845
000230 38 6f cd 3b 50 a5 ae 3c e4 02 76 3d 28 be 23 3d
       0.006269362 0.021319062 0.06006135 0.03997627
000240 33 ff 56 3c 2d 81 0c 3d 0c 72 7c 3d 82 c1 d6 3c
       0.013122368 0.03430288 0.0616322 0.026215319
000250 2c ca a9 3c 2f bb 87 3b 92 11 74 3c 52 3c a1 bc
       0.020726286 0.004142187 0.014896767 -0.019682083
000260 0b 5c d3 bc f4 99 fa bb 73 dc 02 3c fe 93 05 bd
       -0.025800725 -0.007647747 0.0079871295 -0.03261184
000270 50 25 fc bb 37 f5 b6 3c e1 ee c0 39 ba 56 01 3d
       -0.0076948777 0.022333724 0.00036799072 0.03157685
000280 f0 3d 6a 3d f1 74 e9 3c 44 3e f4 3d 9b 62 2d 3d
       0.057187974 0.028498145 0.11925939 0.042330366
000290 23 ad 76 3c 41 18 30 3d 84 73 d9 3c a4 c7 89 bc
       0.015055927 0.04299188 0.02654434 -0.016818829
0002a0 ba ac 9b bc fd 56 ff 3c 9b 12 5a 3d 4f 3d 14 3d
       -0.01900326 0.031169409 0.0532404 0.03619128
0002b0 20 c9 a2 3b 4f 47 31 3d c9 14 80 3d 26 1a d3 3c
       0.0049678236 0.043280896 0.062539645 0.025769304
0002c0 5c c5 aa 3c 1e d2 12 bd 68 f3 82 bb 19 10 00 3a
       0.020846061 -0.035844915 -0.0039963014 0.0004885211
0002d0 85 b3 0d 3d e4 c9 2e 3c f2 c7 ab 3c 6b 94 40 bc
       0.03459503 0.010668252 0.020969365 -0.011754136
0002e0 cc 7d 08 3b 2b 45 c2 3c f6 39 04 3d 07 ea ef 3a
       0.0020826934 0.023714622 0.03228184 0.0018303999
0002f0 02 81 f3 3b 9c 80 82 3d c2 85 4b bb 36 5b 21 3d
       0.0074311504 0.063721865 -0.0031055068 0.039393626
000300 b3 7b 87 3d 78 f8 7a bc c4 93 47 3c 2b 9a 2a 3d
       0.06615391 -0.015318029 0.012181226 0.041650932
000310 13 ea 2e 3b 87 65 bb 3c 82 23 db bb 29 e0 8e bc
       0.0026689812 0.02287556 -0.0066875825 -0.017440872
000320 0e 44 95 3c 37 00 10 ba 57 ad 65 bd ce f5 08 bc
       0.018220928 -0.0005493196 -0.056073513 -0.008359386
000330 b4 0c 0e 3c 9b 8e 15 bd f9 ea 62 bd cb 99 b0 bc
       0.008670021 -0.036512952 -0.05539987 -0.02155771
000340 29 77 e1 3c 15 c9 ad 3d 5b 05 b9 3b f0 1d 41 3d
       0.02752264 0.08485619 0.0056463904 0.04714769
000350 6d 84 8d 3b 02 a8 57 3d 58 89 e1 3c e9 9a 88 3c
       0.004318765 0.05265046 0.02753131 0.01667543
000360 37 94 3e 3d dd c7 de 3c 0d 39 4f 3d 92 26 e0 3b
       0.046528067 0.027194912 0.050591517 0.0068405354
000370 ce b4 ff bc c4 4f 51 bd 21 c5 1f bd b0 50 73 bc
       -0.031214144 -0.05110146 -0.039006356 -0.01485078
000380 20 d2 5b 3b 50 05 d8 3c 2c 99 d3 3c 00 c9 f4 3b
       0.0033541992 0.02636972 0.025829874 0.00747025
000390 d5 70 1d 3d 6d 2a 95 3d 8f 76 e4 3c 11 65 1b 3d
       0.038437683 0.07283483 0.027888564 0.03793818
0003a0 9a d1 65 3d 23 e5 a5 3c b1 d3 c9 3c 15 7e 6a bd
       0.056108095 0.020250862 0.024637075 -0.057249147
0003b0 17 01 a5 bb 99 35 e5 bb 49 64 8d bc 71 55 d4 bc
       -0.0050355303 -0.0069949147 -0.017259734 -0.025919648
0003c0 0d 37 87 3d 01 95 01 3e 50 28 bc 3d f9 e1 a0 3d
       0.06602297 0.12654497 0.091873765 0.07855601
0003d0 c4 d6 a2 3c 57 e4 c1 3b 05 c7 c7 bc 6c 5d 8a bd
       0.019877799 0.005917113 -0.024386892 -0.067561
0003e0 7d 3e ed ba d1 22 a3 3c 2c 54 17 3d a8 20 bd 3d
       -0.0018100288 0.019914063 0.036945507 0.09234744
0003f0 1a 1c 61 3d 59 5d 82 3c 25 3e 19 bb 0b 4c 09 bb
       0.05495844 0.015913652 -0.0023382988 -0.0020949866

bias f4 [32]
000000 ca 59 68 3d 01 1a 1f 3c 82 19 8f 3a ed ad 32 3c
       0.056726255 0.00971079 0.0010917636 0.010905725
000010 42 1d 3f bb a2 85 82 3c eb 39 16 bd 1d 78 bc 3c
       -0.0029161726 0.015932862 -0.03667633 0.023006493
000020 83 dd f1 bc af 29 b1 bc c0 d7 84 3c 85 0a 9c 3c
       -0.02952457 -0.021626322 0.016216159 0.019047985
000030 bb b6 b1 bc 54 81 94 bc ff 83 c2 3a cf f4 03 3d
       -0.021693578 -0.018128075 0.0014840363 0.03221589
000040 79 ab 54 3d 5c 8e 64 3c 95 e9 e3 3c db 73 01 3b
       0.05192134 0.013949957 0.027821342 0.0019752893
000050 55 04 57 bb 7d 97 43 bd f8 63 8c bc 33 ba 5f bc
       -0.0032808979 -0.047751892 -0.017137513 -0.013655233
000060 a6 64 ec bb 82 c5 7f 3c 32 f7 bc 3c d3 b3 dd b9
       -0.0072141467 0.015611054 0.02306709 -0.00042286384
000070 a5 80 44 3d df 63 57 bc fb 07 30 3b 5a 89 22 3d
       0.047974247 -0.01314637 0.0026860225 0.03968177

weight f4 [64, 32]
000000 60 70 a3 3c bc fa 98 3d 83 0e 09 3c 46 a3 32 3c
       0.019951046 0.07469699 0.008365276 0.010903185
000010 80 76 2c bd 95 23 79 3c 86 f2 ac bc 40 77 27 bd
       -0.042105198 0.015206237 -0.021111738 -0.04088521
000020 f4 ac de 3c 42 c3 14 bc 0c 9e 2a bc a6 71 86 3c
       0.02718208 -0.009079756 -0.010413658 0.016411614
000030 95 d6 cc 3d 6b f1 be bd e0 65 d4 3d 3a ea aa bd
       0.10001866 -0.093233906 0.103709936 -0.083454564
000040 e4 03 ea bd f3 da ee bc 7a 21 8a 3d 4e 66 5b be
       -0.11426523 -0.029157137 0.067446664 -0.21425745
000050 b9 bb c1 3c 91 3c e3 3d 1f d3 19 be 4a 78 2c 3e
       0.023649083 0.110955365 -0.15021943 0.16842762
000060 b6 04 cb 3d c5 cf 28 3e f7 de 58 3e 8a f9 8c 3c
       0.09913008 0.16485508 0.21178804 0.017208833
000070 32 3b 45 3d ec b5 01 3e 7c 5d 8c 3d de 04 a1 bd
       0.048152156 0.12667054 0.06853768 -0.078622565
000080 7d c2 e5 3d c8 31 07 3e 0f 30 0e be d6 e7 1c 3e
       0.11218736 0.13202584 -0.1388552 0.15322813
000090 c8 22 4f 3e fc eb c6 3d 58 f0 00 bc ed 13 95 3d
       0.20228112 0.09712979 -0.007869802 0.07279191
0000a0 fb 74 5b be ad 28 71 bb 96 07 69 3d f9 26 0e 3e
       -0.21431343 -0.0036797926 0.056892 0.13882054
0000b0 9c f6 41 3e 94 20 ee bc 3b 5b 3b 3e aa 3e f5 3d
       0.1894173 -0.029068269 0.1829652 0.11974843
0000c0 31 6b 24 be fe 7b dc 3d 85 05 fa 3d a6 19 0a be
       -0.16056515 0.10765837 0.12208084 -0.13486347
0000d0 5c f6 e9 bd b0 8f 8d bd 8b 5e 84 3d 10 60 07 3e
       -0.114239424 -0.06912172 0.06463345 0.13220239
0000e0 c0 45 3f 3e f7 09 27 3e 18 aa 06 be d7 d4 aa 3d
       0.18678951 0.16312395 -0.13150823 0.08341377
0000f0 c1 28 0c be 58 f7 8e b9 73 fc c8 3d 8d 26 0f 3d
       -0.13687421 -0.00027268636 0.09813776 0.034948874
000100 c4 29 0f be 97 2e 24 be 1d 7a 9d 3d 04 8c 2c 3e
       -0.13980776 -0.16033398 0.07689307 0.16850287
000110 12 a2 0c 3c 28 cc 92 bd b7 35 0d be b2 7f 40 3c
       0.008583562 -0.07167846 -0.13790022 0.011749195
000120 f2 66 13 3e 03 89 2d bd ca 06 d8 bd 70 bc 19 3d
       0.1439474 -0.042366993 -0.1054817 0.037533224
000130 be 38 9a bd 00 90 d2 bb 9b ea 7f 3b 6e f7 69 be
       -0.07530354 -0.0064258575 0.0039049748 -0.22848293
000140 c8 de fd bd 41 71 d1 3d b0 63 13 3e c2 47 93 3c
       -0.12396008 0.102266796 0.14393497 0.017978553
000150 12 11 07 3d 6b 1e c2 3d 0e 93 03 be ee d7 4e bd
       0.032975264 0.09478458 -0.12849066 -0.050498895
000160 ed cd 24 be 46 52 89 3d b1 19 95 3d 93 5c a1 bd
       -0.1609418 0.067051455 0.07280291 -0.07878985
000170 00 71 b9 bd 67 c9 85 3d 79 f1 42 3e 83 24 3b 3e
       -0.09054756 0.06532555 0.19037427 0.18275647
000180 85 ca da 3c 04 91 13 be d1 8e 5b be a0 88 4e be
       0.026707897 -0.14410788 -0.21441199 -0.20169306
000190 00 ae be bd f6 d0 73 be 00 17 27 3d 29 f9 90 3d
       -0.093105316 -0.23810181 0.04079342 0.070787735
0001a0 66 27 0c 3d 06 c8 8c bd c0 49 10 be 37 6f cc bc
       0.03421726 -0.06874089 -0.14090633 -0.024955375
0001b0 fa b7 ce bd e4 b9 67 be 9a 74 99 bd 69 ee 4f be
       -0.100936845 -0.22629505 -0.07492943 -0.2030579
0001c0 8f 81 42 3c 49 a1 32 bd 68 bf 7b 3d 08 be 4e 3d
       0.0118717095 -0.043610845 0.061461836 0.050474197
0001d0 fa 75 1a be 9d 1d f6 bd 76 1a a7 bd 20 eb ce 3d
       -0.15084067 -0.12017367 -0.08159344 0.1010344
0001e0 ca ea 2a 3e 88 65 a4 bd 68 53 65 bd d0 72 05 3e
       0.16691127 -0.08027178 -0.055987746 0.13032079
0001f0 e8 b1 cb 3d 30 f0 59 bc e7 b9 65 bc 87 9d 8d 3d
       0.09946042 -0.013301894 -0.014021373 0.069148116
000200 2a c0 0c be 7f 59 01 be 34 17 0e 3c ba 4a d7 3d
       -0.1374518 -0.12631796 0.008672524 0.105123
000210 b9 8c a3 bd c4 1f 0e be dd b3 e2 3d a9 e6 a2 3c
       -0.07985825 -0.13879305 0.110694624 0.019885378
000220 fa 61 d2 3d b5 4d c6 ba 3d 94 d4 3d b9 32 b0 3d
       0.10272594 -0.001512936 0.10379837 0.086034246
000230 2e 30 3a 3d 2b fb f4 3d ef 5d 94 3d 05 de 02 3e
       0.045456104 0.11961969 0.07244479 0.12780006
000240 e0 21 1b 3e 9a 9d 1f 3d ed a0 16 3d 2b 98 ba bd
       0.15149641 0.03896866 0.036774565 -0.09111055
000250 b8 11 2d be 65 c9 1b be 39 5f c2 bd 91 5b f9 3d
       -0.1690129 -0.15213545 -0.094908185 0.12175668
000260 c3 c5 1c 3e 8d 87 45 3e b4 78 2b 3e e5 a9 af 3d
       0.15309815 0.1928999 0.16745263 0.08577327
000270 bb 71 ae 3d 5f ed ce bc eb dd ce bd 01 a7 da bd
       0.08517786 -0.025259672 -0.10100921 -0.10676385
000280 33 79 38 bf 5f 50 48 bf 48 2d e8 be 05 41 bd bd
       -0.72059935 -0.78247637 -0.45347047 -0.09240917
000290 35 e8 b2 3d f7 13 3c 3e 84 42 db 3d 1c 0c e6 3d
       0.08735696 0.18366991 0.10706046 0.112327784
0002a0 d1 56 cf 3c bd f8 a0 3d fa 46 6c 3d d9 57 05 be
       0.025309952 0.07859943 0.057684876 -0.13021792
0002b0 23 aa 63 3b 02 a1 4c bd f1 55 bc bd 13 d5 11 be
       0.003473886 -0.049958237 -0.091960795 -0.14241438
0002c0 57 d7 2b be b1 80 22 3d 50 3e 49 3e 20 a4 56 3e
       -0.16781364 0.03967351 0.19652677 0.20961046
0002d0 55 8b d9 39 21 68 2d 3e a3 31 04 bc 0e f9 e1 3d
       0.00041493276 0.16934253 -0.008068475 0.110338315
0002e0 6c fc b0 3d 53 0a 86 3d 10 9e bc 3d 34 d5 98 3d
       0.08641896 0.06544938 0.092098355 0.0746254
0002f0 d7 06 98 bc ef 14 05 bd c5 9f 01 3e bb 7c 6b 3d
       -0.018557949 -0.032490667 0.12658603 0.057492
000300 29 96 84 3e 29 fe 04 3e b3 9b 2b 3a 89 e5 3b 3d
       0.25895813 0.1298758 0.00065463333 0.0458732
000310 66 9d 60 bd 70 c6 b6 bd 74 41 10 3e b9 5a e5 bd
       -0.054837607 -0.08924568 0.14087468 -0.111989446
000320 49 80 68 bd 42 9b 07 3e 6e 04 99 bd 0b c3 e8 3d
       -0.056762967 0.1324282 -0.07471548 0.113653265
000330 79 88 4a be 92 04 bf 3d 48 5b eb 3d 9d be 41 3e
       -0.19778623 0.093270436 0.1149202 0.1892037
000340 ae f7 6f bd 3c 65 2b 3e 47 fa 3c 3e bc 50 8d 3d
       -0.058585815 0.16737837 0.18454848 0.069001645
000350 c1 33 fe bd 2d 52 b5 3d 64 48 87 bb 41 47 ff 3c
       -0.12412215 0.088535644 -0.0041285027 0.031161906
000360 f5 48 86 bd 41 18 f1 bd 80 b6 a0 3d 5b ea c3 bd
       -0.06556884 -0.11772204 0.07847309 -0.09566184
000370 06 e0 f2 bd 5e 20 c1 bd 1e aa 13 3e 79 d2 eb bd
       -0.11859135 -0.09430002 0.14420363 -0.11514754
000380 81 f3 db 3d eb 6d 8a bd 59 8f 6f bd 2b 46 03 be
       0.10739804 -0.067592464 -0.058486316 -0.12819736
000390 4c c8 d8 3c ac 25 aa bd 63 74 6d bd 7b 6f 97 bd
       0.026462696 -0.083079666 -0.057972323 -0.0739431
0003a0 01 52 36 3e 7a 01 81 3c 99 3e 25 3e f3 76 0f 3e
       0.1780472 0.015747774 0.1613716 0.1401022
0003b0 00 e0 fc bc 86 a1 a5 3d 21 69 d1 3d 15 7f 01 be
       -0.03086853 0.08087449 0.1022513 -0.12646134
0003c0 8e ea 96 bd 09 3b e8 3d 62 16 33 3e 59 46 84 3e
       -0.073689565 0.11339385 0.17489007 0.2583492
0003d0 8f a7 1e 3e e2 0d 85 3e 8f 7a 1b 3e 5b 37 57 3e
       0.15493606 0.25987154 0.15183471 0.2101721
0003e0 27 14 79 bd 2a e0 54 bc 72 0d 22 be 01 2b 10 be
       -0.060810234 -0.012992898 -0.15825441 -0.14078905
0003f0 b6 57 8f be 84 6b fc bd cd ef 10 3e a0 ab ed 3d
       -0.27996606 -0.123251945 0.14153977 0.116050005

bias f4 [64]
000000 a8 75 c1 bd ce 94 4a bd a2 f7 6b bd 88 33 4d be
       -0.09446269 -0.049458317 -0.057609208 -0.20039189
000010 03 b4 e4 3d 32 25 27 3d 6e 96 e0 bd b0 4c 38 3e
       0.11167147 0.040806957 -0.10966192 0.17998004
000020 f9 4b 3f 3d 26 06 a8 bb 5d 51 f3 bd ab c8 98 3d
       0.046703313 -0.005127686 -0.11880753 0.074601494
000030 93 ac ef bb 56 94 3b bc ec 38 59 3d 0d 9c c3 3d
       -0.0073142736 -0.01144894 0.0530328 0.09551249
000040 62 83 6b be 2e c6 27 be 77 1a 4f 3d 07 c5 a1 3d
       -0.22999337 -0.16384193 0.05056235 0.07898908
000050 d8 2a 53 be cb ac 15 3b a2 dd ef bd ac a9 49 be
       -0.20621812 0.0022838588 -0.11712195 -0.19693631
000060 fa bb 32 be 2a 0e 0b bd 42 7b e0 3d 3a ec 8a be
       -0.1745452 -0.033949055 0.109610096 -0.27133352
000070 ab 18 d8 3d 81 5a e5 bd e7 de c8 bd e4 7d e1 3c
       0.1055158 -0.11198903 -0.0980814 0.02752585
000080 a7 9f 3c 3d bf 2b 1c be 3f fb 22 3d b6 18 70 bd
       0.046050694 -0.15251063 0.03979039 -0.058617316
000090 b6 9e 3a 3e 41 ea 42 be 75 d3 a4 bc d7 d1 a4 bb
       0.18224606 -0.19034673 -0.020120362 -0.0050298977
0000a0 b7 95 16 3e c3 05 cd 3c a4 64 70 be c7 46 24 3d
       0.14705549 0.025027161 -0.23475891 0.04010656
0000b0 7e 2e 9d 3d 15 34 11 be 9f 6a f4 bd 5e ae 63 bd
       0.07674883 -0.14180024 -0.11934399 -0.05558621
0000c0 f5 18 58 3d 55 31 e8 bc 27 9d f0 bc 59 01 5a 3d
       0.052758176 -0.028343836 -0.029371811 0.05322394
0000d0 bf db 28 3e ca a7 0e be 3d 59 af bd 3c 0c 54 bd
       0.16490076 -0.13931194 -0.08561943 -0.05176948
0000e0 46 ac fc 3d 52 97 28 be 0b f3 1b 3e b3 25 35 3e
       0.12337546 -0.16463974 0.15229432 0.17690162
0000f0 1e c5 8e 3d 0d 45 b2 3d 5d c1 8d bd ff 40 29 be
       0.06971191 0.08704577 -0.06921647 -0.165287

weight f4 [1, 32, 1]
000000 7a 96 f0 3d 09 8a 55 3e af e9 9c bd 6c 5d fa bc
       0.11747451 0.20853437 -0.07661759 -0.030562125
000010 fd ee f2 bd 35 54 1b 3e e3 41 27 be 81 f1 73 3e
       -0.1186199 0.15168841 -0.16333728 0.23822595
000020 3c a9 44 be d9 c5 d0 bd 90 4a b5 bd c1 ef 40 3e
       -0.19205183 -0.101939864 -0.08852112 0.18841459
000030 8a a4 c4 bd b8 b0 3f bd 99 c9 1c 3e 77 5a 33 3e
       -0.09601696 -0.04679939 0.15311278 0.17514978
000040 6b 6d 36 3e 87 3c 0b 3e b8 dc ca 3d 64 2c 6c 3e
       0.17815177 0.13597308 0.0990538 0.23063809
000050 da 60 e6 bd 98 eb 0f be e5 bd 17 be 62 c1 35 be
       -0.11248942 -0.14054716 -0.14818533 -0.17749551
000060 49 d1 e7 bd 77 42 18 be 6b 13 ec 3d b8 78 57 3e
       -0.11319215 -0.14869104 0.11527141 0.21042144
000070 69 04 36 3e e3 bd 6e bd 1b e7 82 be 9b ff 11 3e
       0.1777512 -0.05828656 -0.25566944 0.14257662

weight f4 [64, 64]
000000 c0 c2 43 bd e0 92 0d bd ea cb a6 3d a0 ec 32 3d
       -0.04779315 -0.0345639 0.08144362 0.043682694
000010 38 5d 0d 3d e2 1b a5 bd e0 1b b5 bb 18 00 9d 3c
       0.03451273 -0.08061959 -0.0055270046 0.019165084
000020 f8 0e c8 3d 58 a7 82 bd 42 e7 ed 3d 3e 5e ce 3d
       0.0976848 -0.063795745 0.116163746 0.10076569
000030 ec 67 00 bd e8 ed fc bd cc ab 11 3d 0c 45 d9 bd
       -0.031349108 -0.123500645 0.03556423 -0.10608873
000040 8c cd 32 bd c8 90 ab bc 6e 78 f6 bd 82 6a ef bd
       -0.043653056 -0.02094306 -0.12034689 -0.11690237
000050 3c 7d 5e 3d 5e e9 de 3d e4 a3 7a bd 24 4d 2e bd
       0.05431865 0.10884355 -0.061191455 -0.042554036
000060 00 78 25 39 2a d8 ed 3d d8 86 b1 3d 40 af 88 3d
       0.0001578033 0.11613496 0.086682975 0.06674051
000070 b8 5d 9a bc 00 a8 f6 38 b2 07 87 bd 60 66 f6 3d
       -0.018843517 0.000117614865 -0.06593265 0.12031245
000080 2c 01 9c bd f8 79 df 3c 80 70 84 3c 16 16 b9 3d
       -0.07617411 0.027279839 0.016166925 0.09037416
000090 78 cf 6c bd 28 23 3f 3d b6 af d7 3d a0 f6 21 3c
       -0.057815045 0.046664387 0.10531561 0.00988546
0000a0 72 b3 9f bd 0a aa ff bd a8 9d d3 3c 80 1c 58 3d
       -0.07797898 -0.12483604 0.025832012 0.052761555
0000b0 80 85 c0 3b 94 3c 54 bd 7a df a1 3d f8 53 f6 bc
       0.0058752894 -0.051815584 0.07903953 -0.030069336
0000c0 20 aa 0a bc a0 88 e7 3b 28 1a 60 bd 52 c7 8c 3d
       -0.0084634125 0.0070658475 -0.054712445 0.06873955
0000d0 c8 f8 a5 bc 40 8a d2 3c 3c 28 37 3d 24 db 33 3d
       -0.02026023 0.025700688 0.044716105 0.04391016
0000e0 2c 87 cf 3d e8 19 c3 bd 28 90 6b 3d e8 61 13 3d
       0.10133204 -0.095264256 0.057510525 0.035982043
0000f0 a0 34 bb 3d 7a 97 ac bd 22 58 ab 3d d6 92 cb bd
       0.09140897 -0.08427329 0.083664194 -0.09940116
000100 a8 6a 2c bd d0 7f fa bd 98 0f f8 bc 20 3b a8 bc
       -0.042093903 -0.122314095 -0.030280873 -0.020536005
000110 94 b7 68 3d 56 ca e6 bd f8 6c 55 3d 96 ee a7 3d
       0.0568157 -0.11269061 0.052105874 0.081998035
000120 b4 2d fd bd cc c0 e7 3d 60 6e e6 bc 38 1d 12 bd
       -0.12362233 0.1131607 -0.028128803 -0.035672396
000130 74 35 f9 bd ee 38 81 bd c0 6c fc 3c 7c 77 46 3d
       -0.121683985 -0.063096866 0.030813575 0.048453793
000140 16 12 dc 3d 38 c4 b7 bd 30 a0 15 bc 30 3b a1 bc
       0.10745637 -0.08972973 -0.00913243 -0.019681543
000150 12 b5 e5 bd f8 70 24 3d 90 b5 3a 3d 84 db a4 bd
       -0.11216177 0.040146798 0.045583308 -0.08049682
000160 6c e4 bf bd 20 b0 90 3d 48 3c 6c 3d 18 08 ef bd
       -0.0936974 0.07064843 0.057674676 -0.11671466
000170 18 9d 1b bd a0 be e2 bb a8 af 7e bd 80 7b 2d 3d
       -0.037991613 -0.006919697 -0.062179238 0.042354107
000180 38 ab a8 bd 96 11 8d 3d 10 a5 b6 bc d4 eb 51 bd
       -0.082357824 0.0688812 -0.022295505 -0.051250294
000190 00 47 09 bb 50 3f 58 bd ac 7b 10 bd 84 2f bd bd
       -0.002094686 -0.052794755 -0.035274193 -0.092375785
0001a0 1a 71 d1 bd b8 2c a0 bc 9c f5 ed 3d 4c 14 e9 bd
       -0.102266505 -0.019552574 0.11619112 -0.113808244
0001b0 6c 89 a0 bd 88 eb 0d bd b2 19 d8 bd 32 9f c8 3d
       -0.07838711 -0.03464845 -0.10551776 0.09795989
0001c0 5e c4 db bd ac b8 c0 3d 28 2d c2 bd 20 e6 58 bd
       -0.107308134 0.09410223 -0.09481269 -0.05295384
0001d0 4c 69 cb 3d 40 c3 62 bd c0 7f 1f bb 2c 8b d7 3d
       0.09932193 -0.055361986 -0.002433762 0.10524592
0001e0 78 ba b4 bc dc 7b 1a bd 10 6a ce bd 00 b1 8a bc
       -0.022061571 -0.037715778 -0.100788236 -0.016930103
0001f0 a8 96 aa 3d 58 78 d6 3c 10 e9 de bc d8 81 c6 bc
       0.08329517 0.026180431 -0.027210742 -0.024231836
000200 72 5b 89 3d 60 d6 5d bd c0 9b 5f bb 00 d6 a3 39
       0.06706895 -0.054159522 -0.0034119934 0.00031249225
000210 88 c3 b1 3d 70 9d c5 3c d6 35 96 3d 88 ee ff bc
       0.08679873 0.024122924 0.07334487 -0.03124167
000220 88 d1 c4 bc 6e 44 8e 3d fe 44 d7 3d 28 c5 21 3d
       -0.024025694 0.06946646 0.10511206 0.039494663
000230 9a 2e 96 bd 2c f5 98 3d 16 87 9d 3d 28 1b 1c bd
       -0.07333107 0.07468638 0.07691781 -0.038111836
000240 a0 25 3a bd b0 2f 0f bc 9e 82 c9 bd 20 a5 09 3d
       -0.04544604 -0.008739397 -0.098393664 0.03360474
000250 48 f0 8c 3d 58 aa fa 3d 18 ec a4 bd 30 02 88 bc
       0.068817675 0.12239522 -0.08052844 -0.016602606
000260 62 3b c2 bd 58 3f 8f bc 80 0c b5 bc 70 80 8e bd
       -0.094839826 -0.01748626 -0.022100687 -0.06958091
000270 ac ec e3 bd 28 a6 a3 bc 48 23 e6 3d 20 fc d7 bb
       -0.11129126 -0.01997669 0.11237198 -0.006591335
000280 42 60 e4 3d 10 63 37 bd d2 7d d4 bd 24 55 e8 3d
       0.11151172 -0.044772208 -0.10375561 0.11344364
000290 00 41 30 3a 62 dd da bd 98 2b 8b 3c 8a af 8e 3d
       0.0006723553 -0.10686757 0.01698856 0.06967075
0002a0 66 29 c8 3d 48 4a a7 3c 40 7b cc bb f0 5b a2 bd
       0.09773521 0.020421162 -0.0062402785 -0.07927692
0002b0 fe a7 f1 bd 20 7d 86 bb f0 23 a2 bc c8 6d a6 bc
       -0.1179962 -0.0041042715 -0.019792527 -0.02031602
0002c0 10 95 73 3c 1c 0d de bd 28 f9 ae bc 84 11 a9 bd
       0.014867082 -0.10842344 -0.021359041 -0.08255294
0002d0 8e 82 a8 bd f4 c9 b0 3d 26 7e c5 3d 60 1f e0 bb
       -0.08228026 0.086322695 0.096432015 -0.0068396777
0002e0 d4 f5 bf 3d fc 81 f8 bd 54 6e 0b bd ac 88 cf 3d
       0.0937306 -0.121341676 -0.034040764 0.1013349
0002f0 f0 05 2a 3c 82 cd 9b bd 6c 89 7d bd 30 af 4d bc
       0.010377392 -0.07607557 -0.061898634 -0.012553975
000300 60 7c 7e 3c 80 27 9d 3c c8 79 5f bd 70 b3 c5 bd
       0.015532583 0.019183874 -0.0545595 -0.096533656
000310 90 ff ef 3d b8 61 b9 3c 72 fd f7 3d 58 50 e9 bd
       0.117186666 0.022629604 0.12108888 -0.113922775
000320 08 9e b1 3d dc 72 b7 3d 88 bb 98 3d fc 0b 1d 3d
       0.0867272 0.089574546 0.07457644 0.038341507
000330 ae 41 b6 bd 7c 28 c4 3d 10 10 e0 3d e8 d1 96 3d
       -0.08899246 0.09578034 0.10940564 0.07364255
000340 52 30 81 3d d2 f5 f9 3d 00 46 9c ba a4 41 ce 3d
       0.063080445 0.1220509 -0.0011922717 0.10071114
000350 a6 25 d3 3d 9c 09 5c 3d d8 35 d0 3c 34 18 33 3d
       0.10309915 0.0537201 0.0254163 0.043724254
000360 10 c9 2a bd 0c 87 c8 3d 20 c8 7d 3c 80 93 20 3c
       -0.041695654 0.09791383 0.015489608 0.009800792
000370 6e f7 f9 3d e0 93 7f 3c c8 27 fc bc f0 c4 2f bc
       0.122053966 0.015599221 -0.030780688 -0.010728106
000380 74 1c 09 3d 1a 8e 9a bd a6 38 9c 3d 4c 25 4c bd
       0.0334744 -0.07546635 0.07627992 -0.049840257
000390 90 2c de 3d 50 56 ad 3c be 25 f1 3d d0 d8 23 3c
       0.10848343 0.021159321 0.11774777 0.010000423
0003a0 5c 95 26 3d 94 fd cf 3d 20 8f 41 3c de 7c 89 bd
       0.040669784 0.10155788 0.011813909 -0.0671327
0003b0 00 63 af bb a0 10 a9 3c 18 44 57 3d 52 65 d7 bd
       -0.005352378 0.02063781 0.052555174 -0.10517372
0003c0 a4 fd 69 bd 7c ee ab bd 40 d8 55 bb 30 95 71 bc
       -0.057126656 -0.08395097 -0.0032630116 -0.014745042
0003d0 d8 24 44 bd 00 26 7e ba d2 65 9d 3d 50 20 0a 3c
       -0.0478867 -0.00096949935 0.07685436 0.008430555
0003e0 0e 2a ee 3d 7e 9e b2 bd 88 a3 f9 bc b0 a8 c7 bd
       0.11629115 -0.08721636 -0.030473486 -0.097489715
0003f0 44 ca 7b 3d 40 75 88 3d 48 a9 57 bd 64 0e df 3d
       0.061472192 0.06662989 -0.052651674 0.10891417

bias f4 [64]
000000 70 24 63 bd 5e 94 8c bd b6 f2 ca 3d d0 57 59 bc
       -0.05545467 -0.06864236 0.09909575 -0.013265565
000010 66 e4 ca bd b6 8d cc 3d 5e 29 a5 bd 90 56 16 3c
       -0.09906845 0.09987967 -0.08064531 0.009175912
000020 5c 7c d6 3d 2c be ca bd 7e f1 da bd 84 02 97 bd
       0.104729384 -0.09899554 -0.10690592 -0.07373527
000030 a2 43 9e 3d 04 fd c5 bd 18 d4 41 3d 40 95 42 3c
       0.07727744 -0.096673995 0.04732141 0.011876404
000040 b8 00 c1 bd 36 7b 85 bd a0 f6 84 bd 62 8d cb 3d
       -0.09423965 -0.06517641 -0.064923525 0.09939076
000050 b6 fe 9a bd 80 60 de bb 90 b8 ae bc 1f cd a7 bc
       -0.075681135 -0.006786406 -0.02132824 -0.020483552
000060 e3 75 61 bd 54 40 80 3d 48 38 1a 3c c8 12 23 bd
       -0.055044066 0.062622696 0.009412833 -0.039812833
000070 88 92 6b bb dd 8d 38 bd 97 58 c7 bd 58 5b c3 bd
       -0.0035945494 -0.045057166 -0.09733694 -0.09538907
000080 89 7c 2a 3e 31 69 31 be 67 43 da bd 1f 4b a4 3c
       0.16649069 -0.17325284 -0.10657387 0.020055352
000090 c3 4a af bd 68 75 81 3d e3 7e 10 3e 8c ae 20 3d
       -0.085591815 0.063212216 0.14110903 0.03922896
0000a0 fc b6 2f be b8 94 f3 3c b2 a7 85 3d 18 60 e9 bc
       -0.17159647 0.029734 0.06526126 -0.028488204
0000b0 b0 38 ee bd f8 3a fe 3c 30 7e e5 3c 04 ad 32 bd
       -0.11631906 0.031033978 0.028014272 -0.04362203
0000c0 48 39 9b bc 2e 75 ea bd 80 10 99 bb d4 08 31 bd
       -0.018948212 -0.114481315 -0.0046711564 -0.04322131
0000d0 40 8a 94 3b 4a 5c e8 bd d0 10 6a 3c 76 1a da bd
       0.0045330822 -0.11345728 0.014286235 -0.10649578
0000e0 88 32 5d 3d a0 a7 d0 bb 14 cc e9 3d 8c 38 16 3d
       0.05400327 -0.0063676387 0.11415878 0.03667502
0000f0 58 9d 8b 3c 70 41 98 3d ac 74 a6 bd 3a 03 e3 3d
       0.0170428 0.07434356 -0.08127722 0.110846

weight f4 [1, 32, 7]
000000 00 12 7d bc 93 59 9b bc 6b 97 a4 3c e4 99 01 bd
       -0.015446186 -0.01896361 0.020091733 -0.031640902
000010 ec 49 27 bd 95 01 b2 ba 38 97 15 bc 14 7e a3 3c
       -0.04084198 -0.0013580794 -0.009130292 0.01995758
000020 59 93 d8 3c 3c ed 18 bd f8 ee 71 bd 5f 87 c9 3c
       0.026437448 -0.03733562 -0.05906579 0.024600683
000030 43 db f4 3b ee 29 3d 3d 49 9e ab 3c 85 6a c6 3d
       0.007472427 0.046182565 0.0209495 0.09688286
000040 b6 72 fd 3c 38 76 ae bc 66 8a 22 bd 49 77 62 3d
       0.030938487 -0.021296605 -0.03968277 0.05528954
000050 49 4d a6 bd 6e e5 a3 bb 09 ac 29 3d 4c 7b 32 bd
       -0.0812021 -0.0050017154 0.04142383 -0.043574616
000060 29 8a 2e 3d 37 7f b1 bd 6e b6 64 3d a2 06 53 3d
       0.04261223 -0.086668424 0.05583804 0.051519997
000070 2f 39 2a 3d 42 e1 48 bd 4e 67 93 bd df a8 1f bd
       0.04155844 -0.049042948 -0.07197438 -0.038979407
000080 26 c6 6d bd 40 91 70 3c 6d 8c 80 3d 12 f0 11 3d
       -0.058050297 0.014683068 0.06276784 0.03562934
000090 10 3b 72 bd 0c ff a4 3c b0 bb b6 bd 50 e6 07 bd
       -0.059138358 0.020141147 -0.08922517 -0.033178627
0000a0 a4 78 12 bb 13 44 76 bd f3 a0 82 bd 41 a4 bf 3b
       -0.002234974 -0.060123514 -0.06378355 0.005848438
0000b0 8f 4b c2 ba 03 5a 08 bd 8e 6c 76 bc 89 7a 4c bd
       -0.0014823544 -0.033288967 -0.01504053 -0.049921546
0000c0 f2 fd 02 bc a4 87 6a bc 49 77 15 bd b7 93 89 3c
       -0.007995116 -0.014314566 -0.036490712 0.016794069
0000d0 64 8d be 3c 26 bb 33 bc 1c 2a 26 3d 9a 18 a5 bc
       0.02326078 -0.010969913 0.040567502 -0.020153333
0000e0 54 c0 f5 3c c0 59 7e 3c 2a a2 56 bc 57 9c 02 bd
       0.029998936 0.015524328 -0.013100186 -0.03188738
0000f0 1e a1 fa 3c 62 3b 72 bb 8a 21 7d 3d 85 c2 4b 3c
       0.030594405 -0.0036961664 0.061799563 0.012436514
000100 9d 68 c9 3c d4 87 a9 bc 87 d4 35 bd f4 8c a3 bc
       0.024586016 -0.02069465 -0.044392135 -0.019964673
000110 6a 59 3f bd 7d d9 4c 3d 43 72 fd 3d c5 f3 25 bd
       -0.04671613 0.0500121 0.12375309 -0.04051568
000120 1e 53 27 bd c4 fc 43 3d 75 ad 70 bb 51 b2 a2 bd
       -0.04085075 0.047848478 -0.0036724482 -0.079441674
000130 8a 96 3f bc ee b4 31 bd 43 7a 3e bd f4 bb ce 3a
       -0.011693606 -0.04338544 -0.046503317 0.0015772567
000140 22 a7 ee 3c 09 2d 33 bc 17 d1 3b 3d 62 bb cd bc
       0.02913243 -0.01093603 0.0458537 -0.025113765
000150 77 72 16 3d 23 92 4e 3c f4 21 54 bd 66 16 b2 bc
       0.036730256 0.012608084 -0.051790193 -0.021739196
000160 c7 d6 f4 3c b8 44 02 3d f5 be a9 bb e8 86 96 bd
       0.02988757 0.031803817 -0.0051802346 -0.0734995
000170 f1 61 b8 3d 7f 95 16 bc 3c 14 06 bd 2f eb 3a bd
       0.09003056 -0.009190916 -0.03273414 -0.045634445
000180 dc 50 84 bb 37 bc 47 bc b7 30 b5 3c 5a 6c e3 3c
       -0.0040379595 -0.01219087 0.022117956 0.027761627
000190 ae 78 79 3c ce 01 07 3c 07 93 43 bd 58 8b b7 3c
       0.015226526 0.008240176 -0.047747638 0.022405311
0001a0 35 4f 6c bc 99 55 05 3d 8e 41 a5 bc 96 78 43 bd
       -0.014423181 0.032552335 -0.02017286 -0.04772242
0001b0 33 60 1f 3d 3b ca b9 3d bc 18 9a bc 2e ff f9 bc
       0.038910102 0.090717755 -0.018810622 -0.030517187
0001c0 f3 ad 03 bc ec 46 04 3d 59 79 12 3d e5 6f 58 bd
       -0.008037078 0.0322942 0.035760257 -0.052841086
0001d0 cf 09 40 3d aa 28 52 bd a7 89 32 bc a0 02 43 3c
       0.046884354 -0.05130831 -0.010897077 0.011902481
0001e0 4b ef b2 bc 12 c0 e9 bc f8 f9 d9 bb 9a cd 86 bc
       -0.02184262 -0.02853397 -0.006652113 -0.01645546
0001f0 9e 8a a1 3c f2 0a 96 3c 93 e1 61 bd bf 13 c5 bc
       0.019719418 0.018315766 -0.055146765 -0.024057267
000200 fd 7b b6 3c f7 50 fb 3c 42 90 72 bd fc 7a 9a bc
       0.02227592 0.030678255 -0.059219606 -0.018857472
000210 d3 52 16 3d c5 ed ca bc 19 d1 03 3c 66 ba 94 3b
       0.03670008 -0.02477158 0.008045458 0.004538822
000220 e7 41 83 3d 3f 81 fe bc 29 0a ea bc a5 7c 97 3c
       0.06409054 -0.031067489 -0.028569298 0.018492052
000230 fc 96 64 3d ba 81 ea 3b c1 50 ed bc ea 43 bf bb
       0.055808052 0.007156578 -0.02896917 -0.0058369534
000240 19 02 61 bc 5c dd 08 3d 03 a6 a8 bb 35 9a 47 3d
       -0.01373341 0.03341423 -0.0051467433 0.048731048
000250 a1 37 5f 3c 57 75 ae 3c 28 be a8 3d 5a 17 4d bb
       0.013624103 0.021296186 0.082393944 -0.0031294436
000260 b6 ba a3 bd dc 85 c7 3c a5 cf 22 3d f0 87 f7 bc
       -0.07994597 0.024355821 0.039748807 -0.030216187
000270 e8 92 d3 3c c7 28 93 3c 17 eb 79 bd b0 f8 0b 3d
       0.025826886 0.01796378 -0.061015215 0.034172714
000280 2d 26 14 bd e7 11 7b 3d 31 49 0f bd c5 7e a9 bc
       -0.03616922 0.06129637 -0.03498191 -0.020690331
000290 9a 4f 74 3c 9e bd 84 bd 0d ee 84 bd c3 58 46 bd
       0.014911557 -0.06481479 -0.06490717 -0.048424494
0002a0 11 26 28 3d b7 ce 17 bd c1 ef 1b bc 8f 9a 9a bd
       0.041051928 -0.037062373 -0.009517611 -0.07549011
0002b0 bf 0d 43 3d 19 7a 38 3c 35 ec 88 bd b5 27 26 bb
       0.04762053 0.011259579 -0.06685678 -0.0025353257
0002c0 36 0a 53 bc 7b 3c 91 3c f0 48 dc bc 3d e7 58 bd
       -0.012880852 0.017729035 -0.026890248 -0.0529549
0002d0 46 41 ab 3d 00 b0 0d bd 31 be 03 3d 10 5e 16 bd
       0.08362059 -0.034591675 0.032163803 -0.0367108
0002e0 a4 e5 b1 bd 7c 2e 80 3d 3e d4 36 3d a4 bf 19 3d
       -0.086863786 0.06258866 0.044636004 0.03753628
0002f0 d1 8d 77 bd 05 aa 64 3d 3f cb 56 ba 82 26 bf bd
       -0.06043798 0.055826206 -0.0008193738 -0.09333517
000300 77 87 d4 3c e1 e1 09 bd e4 14 67 3d ae e3 66 3c
       0.0259435 -0.03366268 0.056416407 0.014092369
000310 5b a2 de bc fc 3a 88 3d 37 63 32 3d d2 8e 0f 3c
       -0.027177026 0.066518754 0.04355165 0.008762078
000320 34 22 4d bd b0 ec 3d bc d2 a4 32 bd d1 17 aa bd
       -0.050081447 -0.011592075 -0.043614216 -0.08305324
000330 65 53 75 bc e8 25 9a 3c 8f 3c 67 3b 04 aa 51 bd
       -0.014973496 0.018816903 0.0035283898 -0.05118753
000340 23 5b 4f 3c e1 63 8d 3c 86 e0 7b 3d 2f a1 6a bd
       0.012656006 0.01725954 0.06149342 -0.057282623
000350 e8 e3 81 bc 26 65 62 3d f9 fa 62 3d 5b c3 dd bc
       -0.015855744 0.055272244 0.055415127 -0.027070692
000360 f8 62 55 bd 12 fb 9a 3c 82 15 54 bd 8b ab 5b 3c
       -0.052096337 0.018918548 -0.051778324 0.013407598
000370 2d e8 74 bd 85 4b 17 bd 7d d5 7b bc ca 6c 2d bd
       -0.059791733 -0.036937255 -0.015370724 -0.042340077
