net6_tm2.pt (torch, 302471 bytes, 7 tensors)

weight f4 [128, 64]
0.08673406 -0.015912931 -0.06838875 0.07770401 0.12124642 0.11539368 0.06847564 0.07316383
-0.010617295 -0.115969144 -0.064332634 -0.0809723 -0.10300361 0.018697837 -0.014138225 0.11463859
-0.09965464 -0.0038898913 0.06159448 0.025822172 0.009258202 -0.10800732 -0.017107941 -0.11360746
0.09778953 0.011559004 -0.11609665 0.027319407 0.050664477 0.08051299 -0.0273487 -0.033403285
0.037219822 -0.04354406 0.114824995 -0.018456364 0.012066715 0.009835348 -0.103477284 0.07883028
0.09656829 0.017209763 -0.053276386 0.0836055 -0.09330616 -0.09354583 -0.0457639 0.09679764
0.0864937 0.11693038 -0.03300422 0.078732625 -0.11515316 0.10134648 0.10244595 0.07536466
0.10790176 0.00754558 -0.11166752 0.115266725 0.06401438 0.08401984 -0.086805776 -0.105601616
-0.041632652 -0.10328504 0.11357958 -0.005855491 -0.072967276 -0.08975481 0.08174548 -0.041135337
0.044002127 0.04466513 0.046055797 -0.09105276 0.059579477 -0.10177301 -0.059761886 -0.08984238
-0.09466669 -0.12120576 0.06947513 -0.01766655 0.017790478 -0.014459597 -0.014877345 -0.08933479
-0.0288328 -0.027630214 -0.03113575 0.10006425 -0.059813116 0.058063887 0.057540584 -0.08662549
-0.025277736 0.05392536 -0.022468409 -0.06342051 0.067853734 -0.05970171 -0.03414914 -0.07633525
0.036441594 0.06447808 -0.15069377 -0.038194153 -0.031726446 0.0054502087 -0.04436705 0.019675236
-0.032593917 0.024910305 0.093787424 0.07799413 -0.025256824 0.122024216 -0.05174343 0.10084539
0.13523267 -0.09825097 -0.030748814 0.05481239 0.041738786 0.11349749 0.059173096 0.11414457
-0.12696649 -0.0043748883 0.055820916 0.051742435 0.001026567 -0.100538604 0.09178928 -0.053948175
-0.09158386 0.057316143 0.033310264 -0.070585005 0.09475483 -0.109913655 -0.054826073 -0.05493152
0.06381783 0.027340483 0.043435443 -0.07071131 -0.055609185 -0.047899567 0.081804484 -0.025737518
0.09601492 -0.036604702 -0.08033489 0.049916457 -0.018807009 -0.057310745 0.09253213 0.006864114
0.046827383 0.09405037 -0.029392432 -0.08804239 -0.121336184 -0.037791297 -0.033101104 -0.0715179
-0.09457727 0.12615481 0.102442086 -0.08766407 0.098471485 -0.020824986 0.009466422 -0.057919234
0.009677947 0.055260085 -0.05138029 0.007997312 0.105259016 -0.09132931 0.08303832 -0.11179033
-0.067481786 0.029794797 -0.05828159 -0.10515566 0.11437164 0.020565875 0.012662932 0.09870876
0.05635062 -0.013270787 -0.0515438 -0.047870535 -0.081936985 0.0034858724 0.0343723 -0.09944513
0.025572076 0.13255863 -0.073378764 0.026194243 -0.049153063 -0.0061781392 0.058552608 0.095359586
0.08621301 -0.03773184 -0.017090201 0.015691955 0.07895025 -0.067819946 0.04286241 0.055880085
0.100182384 -0.00990427 -0.07944695 0.15584664 -0.0403489 0.12103655 0.021321082 -0.058112886
0.09299287 -0.008717412 0.049994625 0.14818949 -0.09544948 -0.090772614 0.012624469 -0.059370838
-0.055053584 0.05847124 -0.03856144 0.009725867 0.05416127 -0.05850804 -0.06890629 -0.044034276
-0.084202826 0.02990829 -0.09040161 0.063046806 -0.09203718 -0.1529551 -0.018960454 -0.048196927
0.22795367 0.0061946237 -0.0013060599 0.08667537 0.038457092 -0.00913194 -0.1104985 0.007736475
00000000: a0a1 b13d d65b 82bc 670f 8cbd 4823 9f3d
00000010: 0b50 f83d 8653 ec3d f53c 8c3d ebd6 953d
00000020: 2af4 2dbc 3b81 edbd d4c0 83bd ced4 a5bd
00000030: 8ff3 d2bd 352c 993c 03a4 67bc a3c7 ea3d
00000040: bb17 ccbd 8ced 7ebb 7e4a 7c3d 0589 d33c
00000050: b7af 173c f132 ddbd f425 8cbc 07ab e8bd
00000060: e145 c83d fa61 3d3c 15c4 edbd f3cc df3c
00000070: 8e85 4f3d ffe3 a43d 620a e0bc e2d1 08bd
00000080: d073 183d 425b 32bd 5e29 eb3d cd31 97bc
00000090: 79b3 453c 7124 213c e6eb d3bd c571 a13d
000000a0: 98c5 c53d 7dfb 8c3c 5738 5abd 5c39 ab3d
000000b0: 4d17 bfbd f594 bfbd ed72 3bbd d73d c63d
000000c0: 9c23 b13d 3279 ef3d 6f2f 07bd 923e a13d
000000d0: 6cd5 ebbd be8e cf3d 2fcf d13d c958 9a3d
000000e0: 99fb dc3d ea40 f73b f1b1 e4bd f610 ec3d
000000f0: f919 833d 9812 ac3d 3ac7 b1bd a945 d8bd
00000100: 0087 2abd 1b87 d3bd 699c e83d 6bdf bfbb
00000110: de6f 95bd 5fd1 b7bd 2d6a a73d 877d 28bd
00000120: 933b 343d c9f2 363d 01a5 3c3d df79 babd
00000130: 9c09 743d 5e6e d0bd e1c8 74bd 48ff b7bd
00000140: 9ce0 c1bd ba3a f8bd fa48 8e3d 71b9 90bc
00000150: 56bd 913c f2e7 6cbc 1cc0 73bc 29f5 b6bd
00000160: c432 ecbc c258 e2bc 6610 ffbc 7cee cc3d
00000170: 99fe 74bd 66d4 6d3d adaf 6b3d b468 b1bd
00000180: 4113 cfbc d7e0 5c3d ab0f b8bc 9de2 81bd
00000190: e6f6 8a3d c889 74bd f8df 0bbd a855 9cbd
000001a0: c843 153d 150d 843d 784f 1abe 7971 1cbd
000001b0: 97f3 01bd aa97 b23b 39ba 35bd f62d a13c
000001c0: 3381 05bd b210 cc3c 9f13 c03d 63bb 9f3d
000001d0: 66e7 cebc d5e7 f93d ebf0 53bd 0788 ce3d
000001e0: 6f7a 0a3e ce37 c9bd f0e4 fbbc f582 603d
000001f0: 4af6 2a3d 5f71 e83d 7d5f 723d a1c4 e93d
00000200: 8103 02be 395b 8fbb 79a4 643d e0ef 533d
00000210: df8d 863a 2fe7 cdbd 05fc bb3d c3f8 5cbd
00000220: 5290 bbbd 55c4 6a3d 5870 083d df8e 90bd
00000230: d20e c23d 691a e1bd 4e91 60bd e0ff 60bd
00000240: ecb2 823d 26f9 df3c 5de9 313d 17d1 90bd
00000250: 75c6 63bd 5632 44bd 1c89 a73d 7dd7 d2bc
00000260: 78a3 c43d d0ee 15bd 9e86 a4bd 3375 4c3d
00000270: 2811 9abc acbe 6abd 7c81 bd3d 5dec e03b
00000280: 12ce 3f3d 7b9d c03d 66c8 f0bc 924f b4bd
00000290: 1b7f f8bd 0ccb 1abd 0695 07bd fa77 92bd
000002a0: bab1 c1bd ba2e 013e 28cd d13d 3889 b3bd
000002b0: 6bab c93d 2999 aabc 0d19 1b3c b83c 6dbd
000002c0: 4090 1e3c 6658 623d 2474 52bd 2807 033c
000002d0: 0a92 d73d dc0a bbbd ff0f aa3d 54f2 e4bd
000002e0: e433 8abd 3814 f43c adb8 6ebd da5b d7bd
000002f0: ae3b ea3d c479 a83c 3078 4f3c d227 ca3d
00000300: e8cf 663d b76d 59bc 971f 53bd e513 44bd
00000310: 94ce a7bd 3c73 643b f8c9 0c3d e3a9 cbbd
00000320: 887c d13c 73bd 073e 9b47 96bd 4f95 d63c
00000330: b954 49bd fd71 cabb dcd4 6f3d e34b c33d
00000340: 7290 b03d b48c 1abd c000 8cbc 6a8c 803c
00000350: abb0 a13d 2fe5 8abd 7f90 2f3d 84e2 643d
00000360: 6c2c cd3d 8545 22bc 15b5 a2bd 4396 1f3e
00000370: e344 25bd 03e2 f73d 8da9 ae3c c707 6ebd
00000380: 0c73 be3d 7ad3 0ebc 2ac7 4c3d fcbe 173e
00000390: 047b c3bd fee6 b9bd dcd6 4e3c d62e 73bd
000003a0: de7f 61bd 8a7f 6f3d 9af2 1dbd 3e59 1f3c
000003b0: 35d8 5d3d 20a6 6fbd be1e 8dbd 495d 34bd
000003c0: 8872 acbd 3b02 f53c 7b24 b9bd af1e 813d
000003d0: fd7d bcbd 43a0 1cbe f452 9bbc 246a 45bd
000003e0: b06c 693e 45fc ca3b 1930 abba db82 b13d
000003f0: 2f85 1d3d 229e 15bc 0a4d e2bd 4282 fd3b

bias f4 [128]
0.01409656 0.12278178 0.0695294 -0.08958007 0.08799288 -0.038421985 -0.10855284 0.051458977
-0.064112276 0.01871143 0.08940295 -0.11086355 -0.005594313 0.018506339 -0.0025740701 0.009174328
-0.03815762 0.055989858 -0.071990356 0.012954483 0.08563029 4.664065e-05 -0.02407831 -0.026699204
-0.1118887 0.09680312 0.022871574 0.10680452 0.08620607 0.07430627 0.036038518 0.019245677
0.028736444 0.12227881 -0.11915634 0.094574295 -0.13677737 0.05088676 0.07080636 -0.098032296
0.019510733 -0.07509543 -0.08954084 -0.0679062 0.06923373 0.056579858 0.07368278 0.115864076
0.025244378 0.055881545 -0.011340963 0.07807256 -0.019796228 0.030492924 -0.09260627 0.059061922
0.008328161 0.043640126 -0.11655783 -0.09187655 -0.040473152 0.07260131 0.0744573 0.05495162
-0.035845146 -0.09012947 0.046864472 0.115833685 0.12897985 0.102232896 -0.13248312 0.08246075
-0.116557874 -0.017600078 0.092738874 0.054852534 -0.067052364 0.054075416 -0.14668429 -0.016503526
-0.03721942 0.02341266 -0.052070145 -0.08116559 0.11816595 0.09657521 -0.09665985 -0.11191946
-0.025871553 0.06916313 -0.007550353 -0.0114026945 0.059825312 0.006755744 0.082165666 -0.109521165
0.035420936 -0.051278587 0.1107922 -0.029269015 0.05879349 0.031781796 0.019499896 -0.08784122
0.06890539 0.054428842 0.10011084 0.043938603 0.057840664 -0.10583145 0.023085704 -0.0067953537
-0.02702989 0.07972299 0.09717679 0.047696833 -0.040204756 0.03655137 -0.025306502 0.11058654
0.040575013 0.05902914 0.08213264 0.06265347 -0.066848904 0.07190079 -0.10067927 -0.0009722238
00000000: 42f5 663c 0475 fb3d 6e65 8e3d c175 b7bd
00000010: 9c35 b43d 5f60 1dbd f450 debd a6c6 523d
00000020: 4c4d 83bd b648 993c e518 b73d 6e0c e3bd
00000030: 8050 b7bb 9b9a 973c bbb1 28bb ec4f 163c
00000040: 2a4b 1cbd 9f55 653d ae6f 93bd 0a3f 543c
00000050: ef5e af3d 04a0 4338 e03f c5bc 4ab8 dabc
00000060: e725 e5bd b740 c63d 2b5d bb3c 54bc da3d
00000070: cf8c b03d e32d 983d 209d 133d 1ca9 9d3c
00000080: b168 eb3c 506d fa3d 3d08 f4bd 2bb0 c13d
00000090: 5e0f 0cbe a36e 503d ed02 913d 28c5 c8bd
000000a0: f9d4 9f3c a2cb 99bd 3061 b7bd 6812 8bbd
000000b0: 6aca 8d3d 48c0 673d ffe6 963d 254a ed3d
000000c0: 4ccd ce3c 0ce4 643d 72cf 39bc 82e4 9f3d
000000d0: b32b a2bc 4ccc f93c 5ba8 bdbd eaea 713d
000000e0: d772 083c fdbf 323d dfb5 eebd c629 bcbd
000000f0: 2dc7 25bd ffaf 943d 127d 983d f314 613d
00000100: 5cd2 12bd cd95 b8bd f6f4 3f3d 363a ed3d
00000110: 4b13 043e 7b5f d13d a8a9 07be 2fe1 a83d
00000120: e5b5 eebd 0a2e 90bc e1ed bd3d 0dad 603d
00000130: c052 89bd 2f7e 5d3d 6834 16be 6732 87bc
00000140: 6473 18bd e8cb bf3c 8147 55bd 253a a6bd
00000150: fd00 f23d 39c9 c53d 99f5 c5bd 0836 e5bd
00000160: 94f0 d3bc 66a5 8d3d f468 f7bb 5ed2 3abc
00000170: 630b 753d 4a5f dd3b 7946 a83d a24c e0bd
00000180: 8b15 113d 7f09 52bd 05e7 e23d 93c5 efbc
00000190: 71d1 703d a12d 023d 3fbe 9f3c 19e6 b3bd
000001a0: 451e 8d3d c7f0 5e3d e906 cd3d f7f8 333d
000001b0: 55ea 6c3d 29be d8bd 3b1e bd3c 8fab debb
000001c0: ca6d ddbc cf45 a33d a004 c73d c15d 433d
000001d0: bead 24bd e4b6 153d 954f cfbc 327b e23d
000001e0: fc31 263d 8ac8 713d 2835 a83d 7650 803d
000001f0: 14e8 88bd b940 933d ef30 cebd d6dc 7eba

weight f4 [256, 128]
0.06588924 -0.013196121 0.0046886676 -0.080475144 0.07806515 0.047706448 -0.045269333 0.065515265
-0.056381874 -0.09320856 -0.03505946 -0.008917727 -0.04971903 0.093884125 -0.08726458 0.0065965625
0.040684484 0.07891646 -0.039959595 -0.013382989 -0.017635327 0.10102041 -0.0057637547 -0.044612512
0.016032051 -0.067527495 0.017733714 -0.08606559 -0.035990383 0.059449695 -0.02955119 0.041980784
-0.07351381 0.05766988 0.046393268 -0.042036105 -0.019000228 0.009989143 -0.044751864 -0.058472183
0.0062598903 0.0030625858 -0.04795657 0.11825628 -0.006921 -0.015777096 0.044194654 0.04244604
-0.037037265 -0.009977611 0.09328981 0.035897046 -0.003143944 -0.041601416 -0.002019086 0.09353247
0.091961235 -0.011439947 -0.033923317 -0.06067095 0.007931932 0.025238149 0.05117474 -0.006853774
0.03978514 -0.017790483 0.111444674 -0.052471142 -0.0056228363 -0.032554865 0.0803488 0.080431305
-0.039582722 0.010696993 -0.034096133 -0.059216995 -0.05368705 0.08390467 0.0015061003 -0.008833056
-0.037432645 0.07225345 0.05727616 -0.07222998 0.073783636 -0.036775608 -0.030037703 0.055580568
-0.03938367 -0.07137757 -0.060958456 0.09436218 -0.05885549 -0.10369495 -0.12316799 -0.08693091
-0.021124184 0.025815642 0.05266305 0.095457755 -0.058812227 0.0627663 -0.0238318 -0.031160047
0.0141571 0.095499486 0.024330668 0.03677541 -0.032636706 0.08982577 -0.017326206 0.04088935
-0.07535273 -0.08522318 -0.034508694 -0.035925884 0.022499416 0.08213248 0.066470906 0.082224764
-0.039293196 0.069371514 0.08024361 0.059409473 0.08598779 -0.017659986 -0.04690216 0.059356607
0.060905185 0.05564045 -0.078503445 -0.05417503 -0.055108123 -0.083701596 -0.06489049 0.0045873527
0.022765702 0.05912224 0.070586964 -0.08103562 0.08036343 0.0919659 -0.057592083 0.074225895
0.036988944 0.047679048 -0.02337097 0.04413082 0.0813898 0.0025901059 -0.04732045 0.053814158
0.006996496 0.00032190408 0.02525576 -0.0654351 -0.00010393358 0.050108176 -0.011148556 0.02313629
-0.08779931 0.05454979 -0.029018136 -0.040613487 0.016109332 -0.046696942 0.053748824 -0.004537983
0.051162772 0.0126090925 0.08457732 0.06471209 -0.07769684 -0.06348445 -0.109139904 0.04499842
-0.08064581 0.019495849 0.022651436 -0.033106316 0.050440468 -0.0054475805 -0.005127747 -0.012010828
0.006856686 0.04511159 0.02235836 0.06125026 0.027954357 0.039843254 0.009584385 0.06502828
0.007845895 -0.0691513 0.05879401 -0.07899626 0.03271788 -0.042822096 0.015753223 0.063048325
-0.079187684 0.04246603 0.014718747 -0.047413025 -0.009662363 0.007026733 0.053207584 0.06188056
0.03302351 0.071416326 -0.022512773 0.00034147975 0.04466831 -0.024384068 -0.08851668 -0.0721663
0.045782402 0.042172108 0.083516136 -0.07507317 -0.029567156 0.074172996 0.021656318 0.018147461
0.04763221 -0.07124049 -0.057530947 -0.028830135 -0.03253959 -0.050915677 0.12317329 -0.060079195
0.030919371 -0.01420678 -0.081593536 -0.053410344 -0.04706572 0.008594404 -0.078577146 -0.017071085
0.06343544 -0.057163354 -0.06559876 -0.04092024 0.023987474 -0.032175593 -0.018002113 0.0028568222
0.05430537 0.044423513 0.032289594 0.06242969 0.07137911 0.033912778 0.009703702 0.073137574
00000000: f0f0 863d 8b34 58bc 65a3 993b 27d0 a4bd
00000010: 9fe0 9f3d d667 433d 566c 39bd de2c 863d
00000020: aef0 66bd 21e4 bebd 829a 0fbd a81b 12bc
00000030: 2ea6 4bbd 5246 c03d c6b7 b2bd fa27 d83b
00000040: c6a4 263d f49e a13d acac 23bd 5344 5bbc
00000050: f677 90bc cae3 ce3d e1dd bcbb 9cbb 36bd
00000060: a655 833c db4b 8abd 4b46 913c 2843 b0bd
00000070: a76a 13bd 8681 733d 5615 f2bc 0bf4 2b3d
00000080: 698e 96bd 4137 6c3d de06 3e3d 0d2e 2cbd
00000090: 5ea6 9bbc 81a9 233c bb4d 37bd 8780 6fbd
000000a0: c41f cd3b aab5 483b 1c6e 44bd 5930 f23d
000000b0: 8ec9 e2bb f83e 81bc 7405 353d e6db 2d3d
000000c0: 63b4 17bd 2279 23bc ba0e bf3d c808 133d
000000d0: a10a 4ebb 3f66 2abd a452 04bb f48d bf3d
000000e0: 2c56 bc3d 9e6e 3bbc 2df3 0abd 1a82 78bd
000000f0: eff4 013c 3cc0 ce3c 9b9c 513d a095 e0bb
00000100: bef5 223d 59bd 91bc 1b3d e43d fbeb 56bd
00000110: c53f b8bb 4058 05bd e98d a43d 2bb9 a43d
00000120: 7e21 22bd 7142 2f3c 63a8 0bbd 858d 72bd
00000130: f4e6 5bbd 36d6 ab3d 5768 c53a 86b8 10bc
00000140: f952 19bd 9ef9 933d 689a 6a3d 50ed 93bd
00000150: e01b 973d 05a2 16bd a111 f6bc 73a8 633d
00000160: c550 21bd 672e 92bd 93af 79bd f540 c13d
00000170: 7412 71bd 055e d4bd 803f fcbd d508 b2bd
00000180: a00c adbc 537b d33c 36b5 573d 5b7f c33d
00000190: 17e5 70bd 9e8b 803d e83a c3bc 5b43 ffbc
000001a0: 2ef3 673c 3c95 c33d 1c51 c73c d0a1 163d
000001b0: 11ae 05bd 93f6 b73d b0ef 8dbc 977b 273d
000001c0: 8852 9abd 7e89 aebd fd58 0dbd 0527 13bd
000001d0: b250 b83c 1335 a83d e621 883d 7565 a83d
000001e0: e7f1 20bd a712 8e3d c356 a43d 5957 733d
000001f0: 5e1a b03d adab 90bc 7b1c 40bd ea1f 733d
00000200: b777 793d 3ee7 633d 6ac6 a0bd a3e6 5dbd
00000210: 0eb9 61bd be6b abbd 4ee5 84bd 8151 963b
00000220: 237f ba3c 292a 723d e68f 903d 01f6 a5bd
00000230: 9595 a43d 9e58 bc3d ade5 6bbd bf03 983d
00000240: b881 173d 1b4b 433d 7a74 bfbc 85c2 343d
00000250: b2af a63d c4be 293b 17d3 41bd 3c6c 5c3d
00000260: dd42 e53b 3cc5 a839 2be5 ce3c d602 86bd
00000270: eaf6 d9b8 3b3e 4d3d 6fa8 36bc 5188 bd3c
00000280: 20d0 b3bd 9a6f 5f3d 71b7 edbc 545a 26bd
00000290: b8f7 833c 4b45 3fbd ba27 5c3d 5cb3 94bb
000002a0: 0e90 513d 5e96 4e3c e036 ad3d c687 843d
000002b0: 851f 9fbd 2304 82bd be84 dfbd 4350 383d
000002c0: a129 a5bd c2b5 9f3c 818f b93c 7d9a 07bd
000002d0: aa9a 4e3d 9e81 b2bb a906 a8bb 10c9 44bc
000002e0: 0dae e03b eec6 383d e128 b73c 8de1 7a3d
000002f0: 8900 e53c ae32 233d d307 1d3c 8c2d 853d
00000300: 128c 003c 329f 8dbd fdd1 703d cbc8 a1bd
00000310: 2f03 063d 3966 2fbd e70c 813c 7b1f 813d
00000320: 272d a2bd dcf0 2d3d e626 713c 2934 42bd
00000330: e34e 1ebc 8240 e63b 32f0 593d 7876 7d3d
00000340: a943 073d b942 923d b56c b8bc a308 b339
00000350: 1ef6 363d 19c1 c7bc 3c48 b5bd edcb 93bd
00000360: 5486 3b3d a9bc 2c3d 820a ab3d f6bf 99bd
00000370: d236 f2bc 03e8 973d 9768 b13c fca9 943c
00000380: fe19 433d 89e6 91bd 92a5 6bbd 2d2d ecbc
00000390: 3c48 05bd f58c 50bd 4742 fc3d 9a15 76bd
000003a0: 9f4a fd3c 8ec3 68bc 831a a7bd cec4 5abd
000003b0: fcc7 40bd 8bcf 0c3c 0eed a0bd a9d8 8bbc
000003c0: 71ea 813d 1f24 6abd a558 86bd fb9b 27bd
000003d0: 6181 c43c 8eca 03bd 2b79 93bc 8639 3b3b
000003e0: 4f6f 5e3d 6ef5 353d 1842 043d 46b6 7f3d
000003f0: 362f 923d 20e8 0a3d 47fc 1e3c 27c9 953d

bias f4 [256]
0.025345385 0.0024823141 -0.033192087 0.03419657 -0.05258263 -0.11500408 -0.05452329 0.06508466
-0.109387554 -0.023743697 -0.008655111 0.084529 -0.04990211 0.04546354 -0.098196454 0.06459715
-0.069482 -0.068543844 0.05967774 -0.029337969 0.040239114 0.02207319 0.029062018 -0.092335194
0.021242876 -0.02750773 0.0031972681 -0.039456777 0.051433608 -0.06787308 0.06483468 -0.06999926
0.054133527 -0.026592875 -0.057478152 -0.033497255 0.05805019 0.018897535 -0.09697299 0.0012883351
0.012313649 -0.031115467 -0.048964016 -0.02967119 -0.02273893 -0.05191335 0.022234498 0.07539619
-0.05925128 -0.020740613 -0.005395204 -0.048093457 -0.078754224 -0.043674264 -0.003452383 -0.092615046
0.046863955 -0.05953361 -0.08050974 -0.06455913 -0.057490177 0.03895086 -0.045613553 -0.079883896
0.04737551 0.09496159 0.04837768 0.0098585645 0.017807264 0.026440442 0.070448056 0.034896202
-0.080790535 -0.10139315 0.022909366 0.0042597377 0.029810365 -0.0031004357 0.08367307 -0.011791099
-0.098081626 0.031486005 0.04651287 0.03103792 0.041263573 0.064169034 0.03842707 0.041185457
0.09438693 -0.060753133 -0.04114864 0.07508897 0.056398872 -0.08061835 -0.017933102 0.07237605
0.07394426 -0.052662756 0.09014102 -0.08070149 -0.00093222095 -0.017922254 -0.04060463 0.039843004
0.0074352836 0.008345193 -0.07840475 0.07264805 -0.010120178 -0.0072775623 0.0087658595 -0.033433005
0.0046179383 0.0423814 -0.02870712 0.016730301 -0.05166941 -0.009340756 -0.048949584 0.016565176
0.04051721 0.082124434 0.027396586 -0.08944816 -0.1088104 -0.09069057 0.059101775 0.061149336
-0.009372776 -0.10810509 0.039306093 -0.033163276 0.047146354 -0.09021635 -0.058836415 -0.08399571
0.059872624 0.05358352 0.08099677 -0.02508277 0.009641091 0.107789986 -0.04923777 -0.06305388
-0.08537452 -0.024804555 0.052843697 0.0663128 0.03093685 -0.058004443 0.07599081 -0.07168708
-0.0037951765 -0.07474285 -0.009276969 -0.08502548 0.011490459 -0.024316894 -0.062173445 -0.01294182
-0.06353045 0.012075331 -0.08226384 -0.044044174 0.020839522 -0.06323742 -0.056110337 -0.082498595
-0.08447347 0.001268213 0.031594258 0.045498244 0.057978686 -0.04943484 -0.06699306 -0.0057925466
0.0712779 0.03686473 -0.04321534 0.00394866 0.0036070638 -0.027557101 0.00970096 0.066106126
0.023516376 -0.075252905 -0.08478581 0.08739638 0.052074693 0.053645328 -0.02424235 -0.114289135
0.006832375 -0.058568932 -0.056335967 -0.102257125 0.04472101 0.06353028 -0.07622695 -0.12494115
-0.060044948 -0.02064712 0.10276729 -0.04910019 0.03797887 0.013941902 0.014748644 -0.08878966
-0.051288057 -0.054947816 0.0046125352 -0.062401615 -0.06566148 -0.02646845 0.0071951593 -0.052223723
-0.049267903 0.095838115 -0.04714149 -0.02553343 -0.1026724 -0.06575578 0.05785133 -0.054243557
0.056430634 0.08747672 -0.009144281 -0.13003965 0.053236146 0.008070265 -0.005255207 0.011936754
0.016540674 -0.0038309856 0.07561234 0.045928568 -0.06502237 0.020191574 -0.07278154 -0.057352133
0.021585543 -0.022925435 0.07048017 -0.06573659 -0.0674685 0.0012451942 -0.038921535 0.056279168
-0.023676248 -0.09137429 -0.068128616 0.050836947 -0.022468282 0.017176414 0.038200755 -0.046657193
00000000: 20a1 cf3c 52ae 223b 6df4 07bd b411 0c3d
00000010: e260 57bd 4287 ebbd d053 5fbd 1b4b 853d
00000020: 9506 e0bd 2482 c2bc 2bce 0dbc 8a1d ad3d
00000030: 2866 4cbd fa37 3a3d 391b c9bd 834b 843d
00000040: 944c 8ebd b760 8cbd a570 743d 2e56 f0bc
00000050: c5d1 243d d6d2 b43c 7813 ee3c 3c1a bdbd
00000060: 8a05 ae3c e457 e1bc 4289 513b 6e9d 21bd
00000070: 0cac 523d 0b01 8bbd 0bc8 843d c65b 8fbd
00000080: 1ebb 5d3d 4dd9 d9bc 366e 6bbd 6b34 09bd
00000090: 09c6 6d3d 01cf 9a3c c699 c6bd 5add a83a
000000a0: 30bf 493c dde5 febc 7e8e 48bd ff10 f3bc
000000b0: fe46 babc 18a3 54bd 1f25 b63c 5169 9a3d
000000c0: 78b1 72bd 38e8 a9bc 40ca b0bb a5fd 44bd
000000d0: e549 a1bd c9e3 32bd 6041 62bb f5ac bdbd
000000e0: 6bf4 3f3d 84d9 73bd 4ae2 a4bd 9437 84bd
000000f0: d27a 6bbd f08a 1f3d 47d5 3abd 2b9a a3bd
00000100: d30c 423d 397b c23d ad27 463d d185 213c
00000110: 8ae0 913c a099 d83c 1247 903d 52ef 0e3d
00000120: 8275 a5bd 36a7 cfbd 6cac bb3c 4595 8b3b
00000130: de34 f43c ae30 4bbb c95c ab3d 742f 41bc
00000140: 05df c8bd 78f7 003d 4784 3e3d 3c43 fe3c
00000150: fe03 293d 0e6b 833d b465 1d3d 15b2 283d
00000160: ef4d c13d 47d8 78bd 7a8b 28bd 3fc8 993d
00000170: 8102 673d 3c1b a5bd 71e8 92bc e539 943d
00000180: 1770 973d e7b4 57bd db9b b83d d346 a5bd
00000190: 4a60 74ba b1d1 92bc 0a51 26bd 6b32 233d
000001a0: aea3 f33b 47ba 083c ab92 a0bd 80c8 943d
000001b0: 1acf 25bc 9e78 eebb ae9e 0f3c 0cf1 08bd
000001c0: 1352 973b 1e98 2d3d 322b ebbc fc0d 893c
000001d0: 4ea3 53bd f809 19bc 5c7f 48bd b1b3 873c
000001e0: 60f5 253d db30 a83d ce6e e03c 9930 b7bd
000001f0: fdd7 debd fabb b9bd b414 723d ba77 7a3d
00000200: 4690 19bc 3466 ddbd 6dff 203d 37d6 07bd
00000210: 891c 413d 5ac3 b8bd 74fe 70bd f105 acbd
00000220: ff3c 753d 657a 5b3d a2e1 a53d 627a cdbc
00000230: abf5 1d3c ffc0 dc3d 8bad 49bd 6522 81bd
00000240: d6d8 aebd ec32 cbbc a272 583d 01cf 873d
00000250: 476f fd3c 1196 6dbd 12a1 9b3d add0 92bd
00000260: 7fb8 78bb c812 99bd 6efe 17bc d721 aebd
00000270: 7a42 3c3c 3934 c7bc 95a9 7ebd ed09 54bc
00000280: 411c 82bd 9cd7 453c f279 a8bd aa67 34bd
00000290: a5b7 aa3c 9f82 81bd f4d3 65bd 06f5 a8bd
000002a0: 6d00 adbd 2b3a a63a fb68 013d 5e5c 3a3d
000002b0: 0f7b 6d3d 307c 4abd a833 89bd 67cf bdbb
000002c0: 26fa 913d 79ff 163d 9102 31bd c363 813b
000002d0: 7d64 6c3b 6ebf e1bc c6f0 1e3c a662 873d
000002e0: 6aa5 c03c 321e 9abd 2fa4 adbd e0fc b23d
000002f0: 464c 553d 34bb 5b3d e597 c6bc 6c10 eabd
00000300: 1ee2 df3b fae5 6fbd 8bc0 66bd 2f6c d1bd
00000310: 612d 373d 2a1c 823d e01c 9cbd 25e1 ffbd
00000320: b1f1 75bd 2624 a9bc a877 d23d 481d 49bd
00000330: bb8f 1b3d 936c 643c 4ca4 713c 5ad7 b5bd
00000340: 6d13 52bd f610 61bd c024 973b d698 7fbd
00000350: 8779 86bd 5dd4 d8bc 5fc5 eb3b 8be8 55bd
00000360: 24cd 49bd c646 c43d 6f17 41bd 7c2b d1bc
00000370: e845 d2bd f7aa 86bd 84f5 6c3d 7e2e 5ebd
00000380: cf23 673d ff26 b33d e5d1 15bc 1d29 05be
00000390: 250e 5a3d 2539 043c df33 acbb 6092 433c
000003a0: 4f80 873c 4611 7bbb a4da 9a3d 981f 3c3d
000003b0: 732a 85bd cd68 a53c 7d0e 95bd 12ea 6abd
000003c0: 2ad4 b03c 1fce bbbc e857 903d e8a0 86bd
000003d0: ed2c 8abd c935 a33a 306c 1fbd fc84 663d
000003e0: b1f4 c1bc 7222 bbbd 0487 8bbd 673a 503d
000003f0: 670f b8bc 8db5 8c3c 6578 1c3d 9d1b 3fbd

weight f4 [128, 256]
0.027496615 0.04586838 0.021182854 0.026688974 -0.060151514 -0.040647592 -0.020969786 0.08809331
-0.0031216177 -0.04813511 0.0028321543 0.019825488 0.04839689 0.05349391 0.06734805 -0.0869997
-0.0146284755 0.060797904 0.035786483 0.023226755 -0.041019235 0.039316423 0.024384156 -0.023061844
0.057606068 -0.05292839 0.059370838 0.014850472 -0.00032345927 0.028839754 0.02426689 0.071673654
-0.066196084 0.020432288 0.052614752 0.034267895 0.0706112 -0.025839755 -0.04125728 -0.0033060808
0.030455142 -0.0018097911 -0.0067425403 -0.020863889 -0.023893043 -0.015726842 -0.005086125 -0.04253135
-0.059337027 0.028765304 0.026240762 0.06592776 -0.05476397 0.002064646 -0.029159334 -0.027987244
0.017517509 -0.039135344 0.011507561 -0.019719651 0.052076202 0.053336464 -0.042153556 0.0029104948
0.01848985 0.026791893 0.021759965 0.00061456126 0.025853038 0.040209558 -0.00057038025 -0.017033713
0.048962634 0.056860704 -0.038856197 -0.024274873 0.04899588 -0.035096757 -0.022970982 -0.0027361289
-0.027243689 0.06464621 -0.08925201 -0.0030757084 0.006297638 -0.033177286 -0.03836413 -0.06768614
0.019518975 -0.061851267 0.043780953 -0.009898473 0.042870585 0.013831813 2.299959e-05 -0.07191393
0.02136544 -0.008794822 0.06188029 -0.0039158636 0.020450657 0.093420774 0.003931653 -0.013715141
0.0039318334 0.02928321 0.039790947 -0.056978077 0.023039734 -0.05322421 0.043301784 0.012957031
0.011098781 0.026940856 0.06261475 0.018453551 -0.0014040098 0.08067589 0.06774097 0.029154405
-0.0680819 0.01865075 -0.03092013 0.023126788 -0.022155538 0.041181147 -0.02055034 -0.020969238
-0.05661408 0.005456506 -0.0029481326 -0.023419738 -0.03491601 -0.017256893 0.06457051 0.021494396
0.037421003 -0.006487564 -0.022511717 -0.026379382 -0.017903786 -0.009144819 0.03327243 -0.0032741178
0.0811811 -0.022315579 -0.00010020625 0.0304651 -0.01776598 0.019673431 0.043208774 -0.047799483
0.07191287 -0.06936014 0.02701305 -0.06878529 0.0124332905 -0.061150126 0.045498032 0.069867544
0.030810658 -0.031880904 0.046833187 -0.027763851 -0.067974135 0.014928367 -0.034438647 0.061686646
-0.01861696 0.0009790198 -0.06976903 -0.027502837 0.0018667451 -0.06140936 0.06030505 0.04005492
-0.022946138 -0.046264492 -0.021343922 -0.050815776 -0.09148723 0.02228244 0.0056779906 -0.020780861
0.064884126 0.033021335 0.08779103 -0.010413243 -0.023161067 -0.058383904 0.029005334 -0.018451547
0.056000356 0.042079106 -0.01996518 -0.078113474 -0.026102643 0.06982085 0.012917737 -0.025112357
-0.039081708 0.05478419 -0.048757438 -0.048966892 -0.001370807 0.025119334 0.0055578034 -0.07034028
-0.028138792 -0.049610477 0.0581768 0.0016798764 -0.0068126977 -0.08348797 -0.041483216 -0.0133038405
0.049928296 -0.044377655 -0.016463906 0.010872897 -0.018792057 0.054623853 0.030790564 -0.00686902
0.013669185 0.030560752 0.061464164 -0.020032933 -0.04344306 0.037063006 -0.048923105 0.029005466
-0.021342479 -0.0016374671 -0.006357223 -0.04331656 -3.4308778e-05 -0.02283713 0.029469308 -0.03307034
-0.005877443 0.026888752 0.022536745 0.0015505272 0.032636706 -0.002251158 0.014674311 0.027151085
-0.052668046 0.015517278 0.027347388 0.04023066 -0.02967051 -0.016610762 -0.07319541 0.06407553
00000000: 9540 e13c 7ce0 3b3d aa87 ad3c d6a2 da3c
00000010: 6f61 76bd 177e 26bd d4c8 abbc 446a b43d
00000020: 0e94 4cbb 5229 45bd aa9b 393b 1069 a23c
00000030: d13b 463d 6e1c 5b3d c6ed 893d e62c b2bd
00000040: 46ac 6fbc 3907 793d d994 123d 0946 be3c
00000050: c903 28bd 420a 213d 48c1 c73c 31ec bcbc
00000060: 57f4 6b3d 71cb 58bd d62e 733d 654f 733c
00000070: f895 a9b9 5941 ec3c 5bcb c63c a3c9 923d
00000080: d091 87bd 9d61 a73c 9182 573d 7e5c 0c3d
00000090: 9b9c 903d e5ad d3bc 65fd 28bd d5aa 58bb
000000a0: 107d f93c 8336 edba 87f0 dcbb bfea aabc
000000b0: 58bb c3bc 94d5 80bc 82a9 a6bb 5a35 2ebd
000000c0: 620b 73bd 37a5 eb3c def6 d63c 2205 873d
000000d0: 2f50 60bd 034f 073b 8edf eebc 8145 e5bc
000000e0: e180 8f3c 624c 20bd 368a 3c3c 1b8b a1bc
000000f0: db4d 553d 5677 5a3d 35a9 2cbd 00be 3e3b
00000100: 0778 973c ac7a db3c f441 b23c 821a 213a
00000110: c0c9 d33c c7b2 243d 9285 15ba 498a 8bbc
00000120: 0b8d 483d c5e6 683d ad27 1fbd 19dc c6bc
00000130: e7af 483d 9ec1 0fbd a42d bcbc a050 33bb
00000140: 282e dfbc 3b65 843d c2c9 b6bd d391 49bb
00000150: 6b5c ce3b e8e4 07bd b523 1dbd 089f 8abd
00000160: 42e6 9f3c c157 7dbd a853 333d 342d 22bc
00000170: 1199 2f3d d49e 623c 3eef c037 9c47 93bd
00000180: 9306 af3c 2818 10bc 3076 7d3d a550 80bb
00000190: 2388 a73c 6453 bf3d 19d5 803b 79b5 60bc
000001a0: 9cd6 803b 58e3 ef3c d5fb 223d d861 69bd
000001b0: d3bd bc3c a101 5abd 365d 313d ba49 543c
000001c0: a9d7 353c 12b3 dc3c 293c 803d e72b 973c
000001d0: c006 b8ba 6739 a53d c7bb 8a3d 38d5 ee3c
000001e0: 866e 8bbd 75c9 983c 364c fdbc 6474 bd3c
000001f0: 887f b5bc 90ad 283d 3059 a8bc aec7 abbc
00000200: 2ae4 67bd 7dcc b23b 7535 41bb c0da bfbc
00000210: 1704 0fbd 545e 8dbc 8b3d 843d 0415 b03c
00000220: c446 193d a295 d4bb 7e6a b8bc 9319 d8bc
00000230: f6aa 92bc 27d4 15bc ac48 083d 9592 56bb
00000240: 4742 a63d 29cf b6bc d225 d2b8 f291 f93c
00000250: f689 91bc 2d2a a13c affb 303d 64c9 43bd
00000260: 0e47 933d b00c 8ebd 794a dd3c 4ddf 8cbd
00000270: 00b5 4b3c 8e78 7abd 255c 3a3d b716 8f3d
00000280: a266 fc3c 8d95 02bd 28d4 3f3d 0471 e3bc
00000290: 0636 8bbd 1c96 743c 8a0f 0dbd 23ab 7c3d
000002a0: 9882 98bc 7452 803a 11e3 8ebd a14d e1bc
000002b0: 92ad f43a 6288 7bbd 6e02 773d a110 243d
000002c0: 8af9 bbbc d67f 3dbd 73d9 aebc 3424 50bd
000002d0: a85d bbbd aa89 b63c 700e ba3b a03c aabc
000002e0: f8e1 843d 6141 073d c9cb b33d 4f9c 2abc
000002f0: 47bc bdbc f623 6fbd 989c ed3c b327 97bc
00000300: a160 653d 245b 2c3d 048e a3bc f5f9 9fbd
00000310: 36d5 d5bc 3cfe 8e3d eaa4 533c 6eb8 cdbc
00000320: 2414 20bd 6365 603d e1b5 47bd 8291 48bd
00000330: a6ac b3ba 10c7 cd3c 3c1e b63b 910e 90bd
00000340: 5383 e6bc 5b34 4bbd cc4a 6e3d 4c2f dc3a
00000350: 0d3d dfbb befb aabd 4eea 29bd 5af8 59bc
00000360: 9d81 4c3d 58c5 35bd 50df 86bc 3c24 323c
00000370: cdf1 99bc 43bd 5f3d 7e3c fc3c 8415 e1bb
00000380: b8f4 5f3c 8b5a fa3c d9c1 7b3d 1b1c a4bc
00000390: 5af1 31bd 61cf 173d 9863 48bd df9c ed3c
000003a0: 6cd6 aebc 47a0 d6ba 4050 d0bb b56c 31bd
000003b0: c5e6 0fb8 ef14 bbbc 9e69 f13c c474 07bd
000003c0: 9197 c0bb cd45 dc3c fb9e b83c 0f3b cb3a
000003d0: 11ae 053d 2a88 13bb 856c 703c f46b de3c
000003e0: 73ba 57bd 2e3c 7e3c a107 e03c e8c8 243d
000003f0: 920f f3bc 4b13 88bc 7ae7 95bd 083a 833d

bias f4 [128]
-0.0077015846 -0.0047687837 -0.012186628 0.010970465 -0.0043996605 0.009632449 -0.072565615 0.027251136
-0.046980925 0.008053674 -0.031048218 -0.026601259 -0.04091397 -0.051012572 -0.07353152 0.036028538
-0.06080928 -0.03967199 -0.018281674 -0.022552086 -0.061731365 0.024022166 -0.037298627 0.039555542
-0.011580147 0.055728003 -0.053494286 -0.030776152 -0.057313748 0.047931265 -0.06144555 0.004656355
0.032854278 0.002271761 -0.042029593 0.043052595 -0.050138477 -0.015365322 0.006892815 -0.022062013
0.0034082388 -0.06630352 -0.0869579 -0.00760439 -0.026011603 -0.0020559635 0.008924709 -0.054168925
-0.034235187 -0.06803967 -0.03246799 -0.046526637 0.016536681 -0.0005632336 -0.036193874 -0.014153273
-0.068226516 -0.07974965 -0.03149633 0.0072711958 -0.027021177 -0.005147408 0.021497997 0.03436436
-0.030536951 -0.010668254 -0.013831961 -0.05712325 -0.029632902 -0.006141421 -0.01669988 0.0083405115
0.020574896 0.036297273 0.024098858 0.037380934 0.07575965 0.0035177863 -0.045857757 -0.016825996
0.011901743 -0.07648488 0.024639262 0.0015181125 -0.038786534 -0.0776972 -0.0512159 -0.089630865
-0.012508977 0.055305734 -0.08052568 0.041318573 -0.09806024 0.009762544 -0.04735709 0.0024146053
0.008879512 -0.040274814 0.020923464 -0.07007167 -0.03451701 -0.07142618 0.0384465 -0.0013036977
-0.05508266 0.03166747 0.025535477 -0.034561176 0.04844128 -0.057328142 -0.0061775544 -0.011896868
-0.0083312215 -0.052524637 0.07173199 -0.04990848 -0.042290922 -0.017268367 -0.010706006 -0.114635564
0.0041510714 -0.012175948 -0.016282497 -0.02969396 -0.0344982 -0.0127912555 -0.053301107 -0.055356234
00000000: 935d fcbb 7543 9cbb 6caa 47bc 77bd 333c
00000010: 072b 90bb 6bd1 1d3c 489d 94bd c63d df3c
00000020: 126f 40bd 8ff3 033c d558 febc e2ea d9bc
00000030: 6895 27bd 8ff2 50bd b297 96bd a992 133d
00000040: 2713 79bd 197f 22bd 73c3 95bc 27bf b8bc
00000050: 07da 7cbd 22ca c43c 72c6 18bd fe04 223d
00000060: a8ba 3dbc 0c43 643d d31c 5bbd 451e fcbc
00000070: d2c1 6abd 9353 443d 54ae 7bbd 5694 983b
00000080: 3592 063d d3e1 143b 3927 2cbd eb57 303d
00000090: 015e 4dbd d5be 7bbc 20dd e13b 65bb b4bc
000000a0: c25c 5f3b 24ca 87bd fc16 b2bd 3f2e f9bb
000000b0: 4916 d5bc 58bd 06bb f138 123c 3ce0 5dbd
000000c0: 323a 0cbd 6258 8bbd 28fd 04bd b792 3ebd
000000d0: ef77 873c f8a5 13ba 0740 14bd 21e3 67bc
000000e0: 58ba 8bbd c953 a3bd 4c02 01bd 3643 ee3b
000000f0: 845b ddbc 97ab a8bb 911c b03c a5c1 0c3d
00000100: a128 fabc e7c9 2ebc 739f 62bc 12fa 69bd
00000110: b3c0 f2bc f93d c9bb 30ce 88bc a4a6 083c
00000120: af8c a83c 73ac 143d f86a c53c c01c 193d
00000130: e027 9b3d a98a 663b 58d5 3bbd acd6 89bc
00000140: 87ff 423c 1ba4 9cbd 47d8 c93c 67fb c63a
00000150: a1de 1ebd b61f 9fbd c3c7 51bd 6390 b7bd
00000160: 74f2 4cbc 4488 623d a6ea a4bd aa3d 293d
00000170: cfd3 c8bd 14f3 1f3c 82f9 41bd 5b3e 1e3b
00000180: 5f7b 113c 34f7 24bd af67 ab3c bc81 8fbd
00000190: b561 0dbd e447 92bd 147a 1d3d d6e0 aaba
000001a0: 5b9e 61bd c0b5 013d c72f d13c 0590 0dbd
000001b0: 5d6a 463d ead0 6abd 156d cabb 15eb 42bc
000001c0: ad7f 08bc 1324 57bd 39e8 923d d66c 4cbd
000001d0: 3f39 2dbd 6476 8dbc 3e68 2fbc 0dc6 eabd
000001e0: b605 883b a17d 47bc df62 85bc bf40 f3bc
000001f0: fc4d 0dbd 6a92 51bc 4352 5abd 38bd 62bd

weight f4 [1, 128]
0.009580031 -0.02494173 -0.0048979456 0.021343786 0.013123374 0.006880417 0.0037242814 -0.019368026
-0.0043460135 -0.049982417 -0.03505897 -0.006909893 0.022341426 0.0064854133 -0.028106073 0.012225976
0.005973567 0.0022465969 0.038005877 -0.037228066 0.0054912376 0.03594252 -0.0038499802 -0.0033789633
-0.0061159353 -0.0060226587 -0.0021284616 0.040783398 0.041404158 -0.021517726 -0.007909454 -0.0042060656
0.0019230518 -0.0027392895 -0.006095074 -0.02510731 -0.0039601354 0.0025139125 0.0061545502 -0.030387007
-0.008515822 0.0056614387 0.0059223417 0.008812646 0.046250153 -0.0046348814 0.04388444 0.007102739
0.004819266 0.03375877 -0.0028180876 -0.0003255852 0.0027053177 0.026874864 -0.00465224 -0.032404292
-0.041411195 0.004522246 0.0035952562 0.007613294 0.011283638 -0.0023512025 0.046195745 0.023425777
-0.00496673 -0.028004859 -0.0090360595 0.004089684 -0.0038049659 0.038546138 -0.0068137636 0.019281918
0.004185663 -0.0018864413 -0.04669157 -0.0072785118 -0.005872127 0.0026136313 -0.03806819 0.01121811
-0.003910217 -0.03270689 0.0012806489 0.07043657 0.0038815835 0.029549498 -0.0011015561 0.008419525
-0.0057075256 -0.0041935956 0.01598729 -0.0027854722 0.0075974823 0.007459919 -0.0143483635 0.029047547
0.0019337385 0.0033933583 0.02780207 0.023807097 0.030755393 0.023940371 0.0043637645 0.0025507847
-0.00040240673 -0.02019838 -0.0055748257 -0.007970258 -0.005167631 -0.026324026 -0.016186325 0.006832721
0.016826563 0.008176599 -0.007874921 -0.0029843822 0.004007499 -0.022675728 -0.037492525 0.013375164
0.020524569 -0.028240306 0.00030727236 -0.0049344175 0.014604347 -0.0077779638 -0.019058323 -0.030358694
00000000: 90f5 1c3c 9952 ccbc f27e a0bb 2ad9 ae3c
00000010: 6c03 573c 1f75 e13b 1313 743b b2a9 9ebc
00000020: 0169 8ebb 5dba 4cbd ff99 0fbd 626c e2bb
00000030: 5e05 b73c 9783 d43b b53e e6bc 764f 483c
00000040: e9bd c33b a43b 133b 0dac 1b3d 757c 18bd
00000050: d7ef b33b 7738 133d f34f 7cbb 9971 5dbb
00000060: 2f68 c8bb b959 c5bb a97d 0bbb 7e0c 273d
00000070: 6897 293d f145 b0bc a896 01bc 09d3 89bb
00000080: e90e fc3a a785 33bb 30b9 c7bb d8ad cdbc
00000090: 06c4 81bb 74c0 243b 1cac c93b 2cee f8bc
000000a0: f285 0bbc 9783 b93b 3410 c23b eb62 103c
000000b0: cd70 3d3d 34e0 97bb 2cc0 333d 18be e83b
000000c0: efea 9d3b a346 0a3d aaaf 38bb 4eb3 aab9
000000d0: b34b 313b ad28 dc3c d171 98bb 5dba 04bd
000000e0: c99e 29bd 592f 943b 649e 6b3b f078 f93b
000000f0: 02df 383c a216 1abb c037 3d3d 6ae7 bf3c
00000100: f3bf a2bb 726a e5bc fb0b 14bc c202 863b
00000110: bc5c 79bb 8ee2 1d3d fe45 dfbb 1df5 9d3c
00000120: e327 893b 7742 f7ba a93f 3fbd 9580 eebb
00000130: f96a c0bb 7549 2b3b 64ed 1bbd 2acc 373c
00000140: 4721 80bb a9f7 05bd 72db a73a 0c41 903d
00000150: 2a62 7e3b ca11 f23c 1762 90ba 0cf2 093c
00000160: 3206 bbbb 6e6a 89bb c7f7 823c 788c 36bb
00000170: 4df4 f83b 5672 f43b 6615 6bbc 1ff5 ed3c
00000180: 7f75 fd3a 1b63 5e3b 2bc1 e33c 1a07 c33c
00000190: bcf2 fb3c 991e c43c e9fd 8e3b 112b 273b
000001a0: 1efa d2b9 1377 a5bc 07ad b6bb af95 02bc
000001b0: 3b55 a9bb 7ca5 d7bc 2f99 84bc 05e5 df3b
000001c0: dcd7 893c 24f7 053c d005 01bc a095 43bb
000001d0: 5751 833b 73c2 b9bc c391 19bd 8123 5b3c
000001e0: 2423 a83c 3758 e7bc 6619 a139 e5b0 a1bb
000001f0: 1247 6f3c 4ade febb 3320 9cbc ccb2 f8bc
